pretrained/nano.onnx (onnx, 172441 bytes, 152 tensors)

encoder.level2_0.c1.conv.weight f4 [3, 8, 3, 3]
00000000: 5b8c ecbc 5b7a 593d de86 cabd 9ed1 e7bd
00000010: 4616 51bd 6b4e 49be 6f67 abbe 0a32 84be
00000020: 9bca 98be 49d5 53be 4b94 d6ba 78ec 7fbb
00000030: b5be 39be 5dd4 383e c763 3f3d 509b 25be
00000040: abb0 9b3e 8c1a cf3d c63f 193d c8fe 9b3c
00000050: cc6a 0e3d 2880 843d 515a 283d 26d3 943d
00000060: 29c8 50bd b547 83bd 7e6a 853d 37cb aabd
00000070: 00ee 2cbd 6476 643d bef0 7dbe 1f0d 43be
00000080: 2d99 e6bd d908 45be 5e6f 95bd 1e0d 43bb
00000090: d2cb 3c3c fdb7 733d 6488 773d 6fcc ce3d
000000a0: 6523 d4bc 22de d8bc b441 59bc becc 57be
000000b0: 25d3 94bc 8c1a cfbd bf79 47bd c52d 86bc
000000c0: 537e 4ebe caab 0bbe 0112 d3bc 201f d6bd
000000d0: e43a 89bd 2cab 79be 6f55 183e 2880 843d
000000e0: ade6 543e 6fcc ce3c 8029 08be a8f1 98bd
000000f0: 0100 c0be fd93 cdbe 2b10 1dbe 611c 05be
00000100: 1e84 f9bd 6818 903c 5f5d 82bd 66ac 1dbe
00000110: b93c bf3c 6081 283e cd17 7ebd e9ee 47be
00000120: 532b 3e3c 3913 f73d f915 c83d aab0 1bbd
00000130: e8ca 213e 1a7d 2a3e 83a7 8dbe 84a7 0dbe
00000140: a461 00be dcd9 dabe 7a75 49be 4162 92bc
00000150: 2538 b8be 09fc 4abe e9ee 47bc cbcf 31be
00000160: f803 353b 1a06 f4bc 4162 123e 2267 a23e
00000170: 248b 483e 82e8 8a3e 95c3 c93e 7f8e 2b3e
00000180: 8f74 ae3d c41b 733d 947b 7d3d f0a2 063d
00000190: 2809 cebc 1735 5ebd c934 d5bd 20ba 32be
000001a0: 58f9 c9bd 30a0 35be 9133 b1bd 4e89 123c
000001b0: 196b 17be 12f8 d5bd fe2e 2abe 0490 58be
000001c0: 30f3 45be aa7a 623c c810 afbe f40e f9bd
000001d0: 6659 8d3e 51bf 4b3d 03d1 55bd 3d6d d63b
000001e0: b72a acbd 6a2a 23be 5932 8dbd 3d08 33bd
000001f0: 75e5 30be c63f 19be 9eba 3abe 783f 90be
00000200: 351e bbbc bb0d 55be c822 42be bbfb c13e
00000210: 17be 27be 831e 44b9 15db fe3e 81c4 643e
00000220: 735c 673e fedb 193d 9bca 983e d0e8 133e
00000230: b9d7 1bbe 3ea3 0f3e e204 50bd a32b 47be
00000240: ffdb 19be 990b 16be 3654 f4bd eb24 013e
00000250: 4e77 ffbd 6476 64be 7e7c 98bd e2f2 3cbd
00000260: b16a be3d d8e4 1ebd 308e 22be bf67 34bd
00000270: 25c1 01be c887 e5bd 9870 b93c 351e 3b3d
00000280: c922 c23d eff5 963e 1e60 53be 0f39 533d
00000290: bede 6a3e 9ead 41be 1452 b53c 26f7 3a3e
000002a0: 7067 2bbe ecad cabd 02bf 423d 8c2c 623e
000002b0: 7e7c 983e b6e2 df3d ae0a 7b3e d05f ca3e
000002c0: 179a 813e 1181 1f3e 4b1d 203e 553d d13d
000002d0: 116f 8cbd 063d 483d fd40 3d3d cfd6 003e
000002e0: 6da8 28be ffc9 86be 4b0b 0d3e 0aa9 3abe
000002f0: b5be 39be 55d8 2d3e a685 263e e33a 893d
00000300: 18be a73e 804d ae3e cfe8 133e 7ea0 3e3d
00000310: c380 163e 5bf1 0f3d 5d39 dc3d bc43 0e3a
00000320: d295 83bd d8d2 8bbd 0b32 84be 948d 10bf
00000330: 37cb 2abd 83a7 0d3d 0a97 273e ad5d 8bbd
00000340: cd3b 24be 0973 01be 5932 0d3e 0873 013e
00000350: 35a7 04be 7851 233e 9d00 523e 8eeb e4bd
-0.02887552 0.053095203 -0.09889005 -0.11319278 -0.051046632 -0.1965882 -0.3347735 -0.25819427
-0.29842076 -0.2068683 -0.0016371099 -0.0039050858 -0.18139155 0.1804976 0.046726014 -0.16172528
0.30408224 0.10112485 0.037414335 0.019042388 0.03476982 0.06469756 0.041101757 0.07266836
-0.050972138 -0.064101614 0.065144524 -0.083395414 -0.042219162 0.05577697 -0.24798867 -0.19047974
-0.11259685 -0.19241656 -0.07296632 -0.0029762457 0.011523204 0.059501637 0.060432807 0.10097586
-0.025895784 -0.026473109 -0.013260294 -0.21074197 -0.018167088 -0.10112485 -0.04870009 -0.016379246
-0.20165376 -0.13639751 -0.02576542 -0.104551554 -0.067006856 -0.24381703 0.1487634 0.06469756
0.20791121 0.025243966 -0.13297081 -0.07467967 -0.37500003 -0.4015197 -0.15338199 -0.12999107
-0.121834025 0.017589763 -0.063654654 -0.15397796 0.023344385 0.16455603 -0.062034417 -0.1952473
0.011607009 0.12064213 0.09769816 -0.038010277 0.15800059 0.16649285 -0.27666864 -0.13833433
-0.12537247 -0.4274434 -0.1967372 -0.017869117 -0.35980335 -0.19822706 -0.012202957 -0.17364423
0.0027620774 -0.029788066 0.14295293 0.3171931 0.19584328 0.27130514 0.3940703 0.16753577
0.085183255 0.05935265 0.06188543 0.032870233 -0.02515085 -0.05424985 -0.104104586 -0.17453814
-0.09862012 -0.17736888 -0.08652414 0.008943869 -0.14786948 -0.10447706 -0.16619489 -0.21148688
-0.1933105 0.013823191 -0.3419249 -0.12161055 0.27607268 0.049743 -0.052201282 0.006543784
-0.08406585 -0.15934148 -0.06894369 -0.04370903 -0.17275031 -0.14965734 -0.18235251 -0.28173423
-0.022841552 -0.20806019 -0.1895858 0.37887368 -0.16381107 -0.00018703383 0.4977652 0.22340585
0.2259386 0.037563317 0.29842076 0.1444428 -0.1521901 0.14027116 -0.050785907 -0.1945024
-0.15025328 -0.14652862 -0.119301245 0.1261174 -0.124739274 -0.22310787 -0.0744562 -0.04613007
0.092976935 -0.03879246 -0.15874553 -0.044044252 -0.12671335 -0.11207539 0.022636697 0.045683105
0.09479291 0.29484507 -0.20642135 0.051568087 0.22936532 -0.18913886 0.022133864 0.18258342
-0.16738677 -0.09896454 0.04754544 0.22087306 0.2978248 0.109319136 0.24515793 0.39526224
0.25312874 0.15576579 0.15636174 0.10216776 -0.06857122 0.04888632 0.046204556 0.12581943
-0.164705 -0.26325986 0.13773839 -0.18228546 -0.18139155 0.16977055 0.1626192 0.06700685
0.32762218 0.34043503 0.14444278 0.046539776 0.14697556 0.035142284 0.10753129 0.00054269633
-0.0642506 -0.06827325 -0.2581943 -0.5646603 -0.041697707 0.03458358 0.1636621 -0.068049766
-0.16038437 -0.12641539 0.13788737 0.12641537 -0.1295441 0.15949047 0.20508046 -0.11177741

encoder.level2_0.d1.conv.weight f4 [4, 3, 3, 3]
00000000: a4ea c9bd ce3b 24bc ab27 52bc d8d2 0bbe
00000010: d849 c2be 2c10 1dbe 611c 853e 8a49 b93e
00000020: 4b2f 333e 18ac 14bc 5820 fabc 4eee b5bc
00000030: 9782 4c3e a4d8 b63e 0d03 1a3e 0997 27be
00000040: c014 a4be 0619 22be 1ba1 d03c 7cbd 95bc
00000050: 692a a3bc 4504 3ebe 3fb5 22be 6cfb 38bd
00000060: b94e 523e 57ea 403e 0a44 973c 77c8 593e
00000070: ac5d 8bbe f497 423d f5cd fbbc b84e d23d
00000080: f827 db3c cc17 7ebd 26d3 143d 24af eeba
00000090: 21cc c53d c822 42be b960 e5bc 744a 54be
000000a0: c7da 753e 8ec7 be3d 718b d13c 4728 64bd
000000b0: adf8 673d 60f8 debd 4b0b 0dbe 3754 f43d
000000c0: cc8e b43e 1b2a 9a3e 92bc fabe d7ae 653c
000000d0: 4e89 12be 63db 873d d9e4 1e3d c7ec 08bf
000000e0: 31a0 b5be ac5d 0bbe 3801 643e 3595 713e
000000f0: edbf dd3d 6b4e c93d 92ce 0dbd d21e 4d3e
00000100: ec36 943d 756e 7abd bc96 9ebe 9ab8 85be
00000110: 2a51 9abc 7580 0d3e 49f9 793d 6093 bb3d
00000120: 0a32 84be b323 5dbe 6ea8 28be 5036 823e
00000130: f7df 8e3d 84a7 8d3d 2a3f 073e a44f 6dbd
00000140: 106f 0cbc 8654 7d3d 7238 c1bd d10c ba3c
00000150: 3866 873d 9fd1 67be 3e08 333e 7114 1b3b
00000160: 65be 30bd b1c9 7d3d 3bd2 f93d d0e8 93bb
00000170: 1ee9 1cbe 32d6 6e3d 622e 183f aa03 2cbf
00000180: 2e58 e93d 0248 8c3c 0e27 c0bd ddfd 80bc
00000190: 2c87 d3bb 249d db3c 6d72 6f3c f644 32be
000001a0: 76a4 b33d 9c77 883d 2dab f9bd 9c89 9b3d
-0.09859207 -0.010024024 -0.01282684 -0.1365465 -0.37946963 -0.153382 0.25998214 0.36188918
0.1749851 -0.0090742335 -0.030533 -0.02220836 0.19971691 0.3571216 0.15040226 -0.16366209
-0.3204708 -0.15829858 0.025467446 -0.01827883 -0.019917684 -0.18556316 -0.15889452 -0.04516165
0.20537843 0.18839394 0.01846506 0.21267878 -0.27219903 0.047508195 -0.030737856 0.10268921
0.026752457 -0.062034413 0.03633418 -0.0018210155 0.09658075 -0.1895858 -0.028000223 -0.20731527
0.24009238 0.09315406 0.025579186 -0.055702474 0.05663364 -0.108872175 -0.13773839 0.11930125
0.35265195 0.3011025 -0.48971993 0.014018736 -0.1431019 0.066336416 0.038792465 -0.53486294
-0.3547378 -0.13609952 0.2226609 0.23592074 0.108276226 0.0982941 -0.03462083 0.20031288
0.07237038 -0.061140496 -0.30974376 -0.26117402 -0.01883753 0.13818534 0.061028752 0.09158969
-0.25819427 -0.2159565 -0.16470501 0.25432062 0.06976312 0.06916717 0.13207689 -0.05793728
-0.008571401 0.061848186 -0.09434594 0.02271119 0.066112936 -0.22638558 0.17483613 0.0023663307
-0.043150324 0.061959926 0.121983014 -0.0045138374 -0.15323302 0.05830974 0.59445775 -0.6719309
0.11393772 0.01712418 -0.09382449 -0.015746051 -0.0064553227 0.026808329 0.014614684 -0.17409119
0.08771603 0.06663439 -0.12190852 0.07594606

encoder.level2_0.d2.conv.weight f4 [3, 3, 3, 3]
00000000: e8b8 8ebc 2f05 d93d 4716 d1b9 7067 ab3c
00000010: 3e2c d9bd ef90 f3bd 21cc c53c b9d7 9b3d
00000020: 20a8 9fbc 8ffd f73c 1c4e 403a e570 c23c
00000030: 32b2 c8bc 197d 2a3e 74f7 c33d 63ff adbc
00000040: b1db 10be 1a18 07be 21cc 453d 8e62 9bbd
00000050: 410f 823c 6411 c13d a361 803e ea77 913e
00000060: 9f6c 44be a17e 57be fbd4 4abe 7d6a 853d
00000070: c24a 5d3d 4a0b 8d3d ac39 e53d 4c41 c63d
00000080: 8b91 85be 5cb0 92bd 6cd7 923b 4eee 353c
00000090: fca5 60bd b459 963d 39ae d3bd 4198 cbbd
000000a0: ea89 24be 71a2 8cbd 6e1f df3d ab27 523e
000000b0: d6c0 f83d 5db0 12bc 3866 073d 1fa8 1f3d
000000c0: 6c60 5c3d 8395 fabd 953a 80bc 5a56 b3bd
000000d0: 4e77 7f3c 4174 253d 4186 b83d f090 f33e
000000e0: 74d3 9dbe e216 63bd 0112 53be 2526 a53e
000000f0: af40 34bc 7609 d7bd c25c 703d 841e 44bd
00000100: 3d1a 463e 0e03 9a3d 5cb0 123e fbd4 4abe
00000110: 4f12 dc3c 959f a3bd 07b4 fe3c 7e05 e2bc
00000120: f5cd fb3d 6659 0dbd d354 86be ea12 ee3c
00000130: 8713 80bd 8a5b 4c3d c492 a9bc ce29 11bd
00000140: c910 2f3d
-0.017422155 0.10596692 -0.00039880184 0.020923346 -0.10604142 -0.11892878 0.024145188 0.07609505
-0.019489348 0.030272273 0.0007335858 0.023735473 -0.024499033 0.16649283 0.09568682 -0.021239942
-0.14146306 -0.13192788 0.048290376 -0.07587157 0.015876414 0.09427145 0.2507449 0.284118
-0.1918206 -0.21044399 -0.19807808 0.06514452 0.054026373 0.06886919 0.11192641 0.09680423
-0.26087603 -0.07162544 0.0044812467 0.01110418 -0.054845795 0.07341328 -0.10335965 -0.099411495
-0.16068235 -0.06866921 0.108946666 0.20522945 0.121461555 -0.008953181 0.033056468 0.038978692
0.053802893 -0.12235548 -0.015652934 -0.08756705 0.015592409 0.04039407 0.09009982 0.47571516
-0.30825388 -0.055441745 -0.20612337 0.32255664 -0.01100175 -0.104998514 0.05868221 -0.047880664
0.19345947 0.07520114 0.14325088 -0.19807808 0.026864199 -0.07989422 0.031091703 -0.02759051
0.122951426 -0.034509085 -0.2623659 0.029061753 -0.062537245 0.049891986 -0.020699866 -0.03544026
0.042740617

encoder.level2_0.d4.conv.weight f4 [3, 3, 3, 3]
00000000: e2f2 bcbc c41b f3bc 4e77 ff3c 03e3 e83d
00000010: 81c4 e4bd 590f da3e 3a13 f73c bae9 ae3c
00000020: 3766 07bd 9e36 0b3c cd17 7ebc d2b9 a938
00000030: bae9 aebe 7fa0 3e3f 74c1 8abe 9770 b939
00000040: 121c 7cbd 60f8 debb 964c 133d e39f 2cbd
00000050: 7a75 c93c e1e0 29be f485 af3e f915 c8be
00000060: 8566 90bd 7f05 e2bd e1e0 293d 2314 92bc
00000070: 046c b23c 12a5 453c 36a7 843e 825f c1be
00000080: b323 ddbd cd3b 243b 063d c83d 3b37 1d3d
00000090: a9f1 98bc 179a 013d 6411 413d 3630 4ebc
000000a0: 3ce4 0c3d b66b a9be 48e7 663b 4457 4e3d
000000b0: b6f4 723d ac5d 0b3e c24a 5d3e 5b7a 593d
000000c0: 073d 483d 57ea 40bf 1340 a23e 5bf1 0fbc
000000d0: 611c 853d 992f 3c3d ffc9 063e 4174 a53e
000000e0: 26d3 943d eb89 a4be ab27 d2bc 6476 e439
000000f0: ecad 4abd d00c 3abe 5d4b 6fbd 69b3 ecbd
00000100: 7226 2ebe 045a 1f3d 688f 463e 4445 bb3e
00000110: 7002 08be b335 70bd 073d 48bd cfd6 80bd
00000120: 3d08 33ba 75e5 303e 0000 00bd 48c3 403e
00000130: 58a9 c3be 2279 b53d d8d2 8bbb 4f36 02bc
00000140: 5ff8 5ebd
-0.023065034 -0.029676326 0.031184819 0.11371424 -0.11170293 0.42589834 0.030160535 0.021351684
-0.033056464 0.0084969085 -0.015508604 8.09316e-05 -0.34162694 0.7446365 -0.27100718 0.00035369836
-0.061550207 -0.006804511 0.03596171 -0.042144667 0.02459215 -0.1658969 0.34281886 -0.39079264
-0.07050804 -0.110362045 0.041474227 -0.017831868 0.021780021 0.012063282 0.25908822 -0.3776818
-0.10797825 0.0025060058 0.09777264 0.03838275 -0.01866992 0.031641092 0.047135726 -0.012584737
0.03439735 -0.3308999 0.003523307 0.05037619 0.059315406 0.13609952 0.21610549 0.053095203
0.048886325 -0.75357574 0.3168951 -0.008785571 0.064995535 0.04594383 0.13162993 0.32315257
0.07266836 -0.32136473 -0.02565368 0.00043575757 -0.04948227 -0.1816895 -0.05842148 -0.11557657
-0.17006853 0.038904205 0.19390643 0.36576283 -0.1328218 -0.05864496 -0.048886325 -0.062909715
-0.00068295357 0.17275031 -0.03125 0.18824494 -0.38215137 0.08860995 -0.004267078 -0.0079475185
-0.054436084

encoder.level2_0.d8.conv.weight f4 [3, 3, 3, 3]
00000000: 26e5 a73d 78ec ff3d e328 f63d 5a7a 593e
00000010: c09d edbf d637 2f3e 20ba b23d a520 03bd
00000020: 80d6 77bc b83c 3fbc 0507 8f3b d3dd 4fbd
00000030: 4f36 02be 3978 9a3e a190 6abd 292d f43c
00000040: 1e0d c3bb 02bf 42bd 611c 85bc 2709 ceba
00000050: dd74 373d d85b d5bd bdba c43e 1611 b8bd
00000060: 08ea 373d 76b6 c6bd a620 833d 29a4 aa3a
00000070: 50ad b83d f94b 013d 351e bb3e 1340 a2be
00000080: 495e 9d3e 3017 6cbb 3a37 1d3c 7326 2ebd
00000090: b5be 393b 40eb dbbc 68e2 d63c 1ca1 50be
000000a0: 046c 323f 6eba 3bbe ad5d 0b3c 2526 a5bd
000000b0: fa5d 94bb 6081 28bd 525a 283d f14f f63b
000000c0: 0973 813e a33d 5abf 0bcd 603e 6e96 15bd
000000d0: 6659 0d3d 3b5b 43bd bc43 8e3d e54c 9c3d
000000e0: 6e43 85bc 5932 0dbe 35a7 043e 9b77 08bd
000000f0: a119 343d 1588 ee3c 7f29 083d 9a2f bcbd
00000100: 09fc cabd 7692 20be 4616 d13d 3a25 8a3e
00000110: a0e3 7a3e ec24 01bd 60f8 5e3d 89d2 023b
00000120: 4ba6 693e 276e f13e 73c1 8a3d 9245 44be
00000130: 2f05 d9be 0bdf f3bd b447 83bc eee3 033e
00000140: 4233 a8bc
0.081980035 0.12496275 0.12019517 0.2123808 -1.8563766 0.17111143 0.08726907 -0.032013554
-0.015126824 -0.011672191 0.0043648505 -0.050748657 -0.1271603 0.30169848 -0.057266835 0.02980669
-0.0059524914 -0.04754544 -0.016248884 -0.001571928 0.044789184 -0.104179084 0.3842372 -0.08987634
0.044900924 -0.097027704 0.064027116 0.0013018894 0.09017432 0.031566594 0.36546484 -0.3168951
0.30735996 -0.0036024563 0.009595687 -0.042517137 0.002834243 -0.026845574 0.026231006 -0.20373958
0.6969607 -0.18332836 0.008506221 -0.08063916 -0.0045278044 -0.041139007 0.04110176 0.007516854
0.25283077 -0.852503 0.21953218 -0.036520414 0.034509085 -0.047694426 0.06946513 0.07631854
-0.016267505 -0.13788737 0.1295441 -0.03331719 0.043969754 0.029117623 0.0332427 -0.09188767
-0.09911353 -0.1568087 0.102093264 0.26981527 0.24500895 -0.031529352 0.054436088 0.0019961915
0.22817342 0.47154352 0.06775179 -0.19167164 -0.42386767 -0.119077764 -0.016025402 0.12879917
-0.020532254

encoder.level2_0.d16.conv.weight f4 [3, 3, 3, 3]
00000000: 0f9e 763e dc74 b7bd 54c6 1a3e 7b34 4c3e
00000010: b040 b43d f1d8 bf3e 8b91 053e 410f 02be
00000020: b466 bf3d eb9b 373e e5e7 783d 3b49 303e
00000030: 169a 013d 32b2 48bf 2255 8f3e da2c eb3d
00000040: cfc4 ed3d 8601 ed3c c36e 033e 19f4 60bd
00000050: e27b 863d c810 afbe 991d 293e 93f2 b3be
00000060: 78da 6c3d 4062 92bb 6376 e43d b718 19bd
00000070: 80b2 d1bb bca8 b1bd d21e cd3e 77a4 33bf
00000080: 44bc f13e 467b f43a abc2 2e3d b8b3 f5bc
00000090: 9b65 753b 2b87 53bd ad5d 8bbc b9c5 083d
000000a0: 814d aebe ae81 313d 974c 93bb 93f2 b33d
000000b0: eb00 dbbc 728b d13d 28a4 2a3e 84a7 0d3d
000000c0: 527e 4e3e 1f96 0cbf 7afe 923e ee5a ba3c
000000d0: c1af 803e 8c08 bc3c 0fd4 2fbe ae0a fbbe
000000e0: 3c7f 69be 719d e43e 8a5b ccbe dd62 243f
000000f0: 084f db3c f3fc 65be 76b6 c63d b335 f03d
00000100: 687d 333e b288 003e 74e5 b0bd 045a 9f3f
00000110: cae1 44bb 62db 873e ab9e 883e 4186 b83e
00000120: 2b10 9dbe f432 1fbf dab5 b4be e38d 193f
00000130: 532b 3e3d de0f 143f a6bd 013d 5e4b efbd
00000140: b064 da3c
0.24083732 -0.08957836 0.15114719 0.19941895 0.08801401 0.374702 0.13043801 -0.12701131
0.09345761 0.17930572 0.060768027 0.17215435 0.03164109 -0.78396904 0.2799464 0.11483164
0.11609804 0.02893139 0.12835221 -0.05492029 0.065665975 -0.3419249 0.16515197 -0.35146007
0.057825536 -0.0044672787 0.11155393 -0.037377086 -0.0063994527 -0.08674762 0.40062577 -0.7017283
0.47213948 0.0018652461 0.04266612 -0.029992923 0.0037444595 -0.051642578 -0.017012442 0.033391688
-0.34043506 0.043336563 -0.004495214 0.08786502 -0.026733836 0.10231675 0.16664183 0.034583583
0.20165375 -0.54916567 0.28709775 0.022748437 0.2513409 0.022953294 -0.17170738 -0.49031585
-0.22802442 0.44651368 -0.3991359 0.64213353 0.026771083 -0.22459774 0.097027704 0.11728992
0.17528307 0.12552145 -0.08637515 1.2449346 -0.0030041807 0.26534563 0.26683554 0.36039928
-0.30676398 -0.62187123 -0.35294992 0.59982127 0.046428036 0.5783671 0.031675003 -0.11684297
0.02665934

encoder.level2_0.bn.weight f4 [16]
00000000: 2426 a53f 17be a73f e794 683f 350c a83f
00000010: a361 803f b706 863f 1847 713f efe1 693f
00000020: 399c 403f 49d5 533f 3117 6c3f 2031 693f
00000030: 5af1 0f3f 9133 313f 1181 1f3f 4f89 923e
1.2902265 1.3104886 0.90852207 1.3128725 1.0029796 1.0470799 0.94249105 0.9136037
0.75238377 0.8274732 0.9222289 0.91090584 0.5622765 0.6921931 0.62306315 0.28620383

encoder.level2_0.bn.bias f4 [16]
00000000: d991 0ebd d295 033f 266e f1be 2155 8fbd
00000010: 4d65 ec3e 5bf1 0f3f 9b53 623f d21e cd3e
00000020: 7ce1 3b3f a4d8 b63b cd05 6b3e 7692 a03e
00000030: 2dbd 8c3e 420f 02be d10c 3abe ced6 803c
-0.03480706 0.5140048 -0.4715435 -0.06998659 0.46171036 0.56227654 0.8840882 0.40062577
0.73390937 0.005580025 0.22951432 0.3136174 0.2748808 -0.12701133 -0.18168952 0.015727427

encoder.level2_0.bn.running_mean f4 [16]
00000000: 2d08 c4bc c201 d2bd 3705 d93e fb72 51bc
00000010: baa7 1f3d d28e d8bd 7f59 d5be f912 01bf
00000020: 16bd 253e 1fdf babe 32d8 123f 6126 25bf
00000030: 3709 74bf 4f30 a3be 8eb8 48be 3c51 67c0
-0.02392968 -0.102542415 0.4238679 -0.012783761 0.038978316 -0.10574116 -0.41669843 -0.50419575
0.16185412 -0.36498353 0.5736114 -0.64511687 -0.9532656 -0.31872794 -0.19601652 -3.6143332

encoder.level2_0.bn.running_var f4 [16]
00000000: 060d 2e3f b585 873e fca3 2c3f bcfe 4e3f
00000010: acd7 823e e0e1 393e d160 af3e 6c48 6a3f
00000020: acc2 463f 2044 5c3f 2611 9140 c3d3 2f40
00000030: 4362 1240 5dc5 8840 d2cf 8240 089a 3041
0.6798862 0.26469198 0.6743772 0.80857444 0.2555517 0.1815257 0.34253553 0.91516757
0.77640796 0.8604145 4.5333433 2.7473 2.2872474 4.274092 4.0878687 11.037605

encoder.level2.0.c1.depthwise.weight f4 [16, 1, 1, 1]
00000000: b2ed 233f ed5a 3abf 33e8 813f aa03 ac3f
00000010: b1ed 233e f9b0 a4be 1fc1 2cbf ed48 273f
00000020: 8171 543f 179a 013f 2d34 433f 3005 d93e
00000030: 2e46 d6be 570e 67be 254a cbbe dc50 11bf
0.6403457 -0.7279499 1.0148987 1.3438618 0.16008641 -0.3216627 -0.6748218 0.6534565
0.82985693 0.5062575 0.7625149 0.4238677 -0.41850418 -0.22564064 -0.39705005 -0.56764007

encoder.level2.0.c1.pointwise.weight f4 [3, 16, 1, 1]
00000000: b335 703e 483a 77bd 5036 02bf 120a 693e
00000010: 9ebf d4bd 420f 02bf 7179 bebe ef7e 603e
00000020: 509b 253c 131c fc3e becc 573e 0eb0 893d
00000030: 3a25 8a3d 5ff8 5ebd 18ac 143e 9c77 88be
00000040: c52d 06be 0c68 3d3e 8601 edbc d295 03bf
00000050: b288 80be 4f00 c93d 9cee 3e3e 0985 943b
00000060: ae93 443e fe52 503c 649a 0a3d 196b 173e
00000070: fc6f 27bf e8b8 0e3e 047e c5be 7b10 263f
00000080: 3a9c c03e 20cc 45bd 2155 8f3e 07c6 11bf
00000090: 4a1d 203e 9086 c13e 15ed 91bd 18be 273e
000000a0: f4a9 553e 4cdc a2be fd40 3dbe cfd6 00bf
000000b0: b68f 4fbe 9770 b93d 0a97 27be a6bb dfbd
0.23457985 -0.060358316 -0.50864124 0.22757748 -0.103881106 -0.5080453 -0.37202027 0.21923421
0.01010783 0.4924017 0.21074197 0.06723033 0.06745382 -0.054436084 0.14518774 -0.26653755
-0.13103397 0.18496722 -0.02893139 -0.5140048 -0.2510429 0.09814512 0.1864571 0.0045324606
0.1919696 0.012715099 0.033838645 0.14786948 -0.6540525 0.13937724 -0.38572705 0.648689
0.3761919 -0.048290372 0.27994636 -0.5694279 0.15636173 0.37797976 -0.07125298 0.16381109
0.20865613 -0.31808698 -0.18481822 -0.5032777 -0.20269665 0.09054678 -0.1636621 -0.10924463

encoder.level2.0.d1.depthwise.weight f4 [3, 1, 3, 3]
00000000: b2ed 23be 76b6 c6bd 6d84 823e a573 133e
00000010: e057 e03e e5d5 e53d 815f c1bd 2043 7c3e
00000020: a107 213f d613 093f 7592 a03e 469f 9a3e
00000030: 5b03 a33d 484c 0a3e 1fa8 9f3d 4174 253e
00000040: eff5 96bd a856 3cbd 351e bbbe 5e4b 6fbe
00000050: b4ac 26bf 4f00 c93c b4d0 cc3d d737 2fbe
00000060: 8678 23be 5a7a 593d d1a7 96be
-0.16008642 -0.097027704 0.25491658 0.14399584 0.43817043 0.11222438 -0.09442044 0.24634981
0.62902266 0.5354589 0.31361738 0.3019964 0.079596244 0.13505661 0.077957384 0.16157629
-0.07371127 -0.04598108 -0.36546484 -0.23368594 -0.65107274 0.02453628 0.100007445 -0.17111145
-0.15963945 0.0530952 -0.2942491

encoder.level2.0.d1.pointwise.weight f4 [4, 3, 1, 1]
00000000: b4be 393e a5ea 49bf a23d 5abf 659b 8dbe
00000010: 1d60 d33d f5a9 553d 8937 26bf 4b1d a0be
00000020: b4ac 26be 3654 f4bd a8f1 983e 70de e13d
0.18139154 -0.78873664 -0.85250294 -0.2765762 0.103210665 0.052164037 -0.6492849 -0.3127235
-0.16276819 -0.119301245 0.2987187 0.11028755

encoder.level2.0.d2.depthwise.weight f4 [3, 1, 3, 3]
00000000: 4062 123d dc50 11bc 554f 643e 900f 0bbf
00000010: e54c 9cbd a573 133f 86ef 593e d908 453e
00000020: cd05 ebbd 2e6a 7c3e 4cb8 fc3d 89e4 95be
00000030: becc d7be c1d3 a6be 2bda e33d f78c febd
00000040: 8554 fdbd 57ea 40bd 96b1 363d 76b6 46bc
00000050: 8ae4 95be 323b 12bf e0bc 833e 0189 89bd
00000060: c038 4abc b78f 4f3d a06c 443e
0.03573823 -0.008869376 0.22295888 -0.5432062 -0.07631854 0.57598335 0.21282777 0.19241656
-0.11475716 0.2464988 0.12339839 -0.2927592 -0.42148393 -0.3258343 0.111255966 -0.12429231
-0.123696364 -0.047098484 0.044602953 -0.012128463 -0.29275924 -0.57121575 0.25730038 -0.067155845
-0.012342632 0.050674167 0.19182062

encoder.level2.0.d2.pointwise.weight f4 [3, 3, 1, 1]
00000000: 6193 bbbd 8ca3 18bc 37b9 17bd 2538 38be
00000010: c7fe 9bbe 8f62 1b3f 25c1 81bf 3e3e ecbe
00000020: e54c 1c3e
-0.0915897 -0.009316336 -0.03704187 -0.17990167 -0.30467817 0.60697263 -1.0137068 -0.46141237
0.15263708

encoder.level2.0.d4.depthwise.weight f4 [3, 1, 3, 3]
00000000: fca5 60bd d5dc 04be a6a9 4cbe 771b 6a3e
00000010: 4a70 b03d 26d3 14bf b83c bf3d a2a2 fd3d
00000020: 4221 953e 293f 87be bca8 31be 59bb 56be
00000030: a7cd f23e 57fc d3be c8fe 1b3e 63ed 9abd
00000040: 9a53 62bd 2ee1 b2bd cc7c a1bd f02b 50be
00000050: 9cdc 2bbe 879c 493e 27e5 a7be 0407 8f3e
00000060: 4c41 463e 54c6 9abd 6659 0dbe
-0.054845795 -0.12974866 -0.1998659 0.2286204 0.086151674 -0.58134687 0.09337753 0.12384535
0.29126936 -0.26415375 -0.17349523 -0.20969905 0.47422525 -0.41403458 0.1523391 -0.07564809
-0.05525551 -0.08734356 -0.07885131 -0.20329261 -0.16783375 0.19688617 -0.32792017 0.2793504
0.19360846 -0.07557359 -0.13803634

encoder.level2.0.d4.pointwise.weight f4 [3, 3, 1, 1]
00000000: 8ad2 02be 89d2 023e 7a10 a6be ffc9 863c
00000010: aa15 3fbf 2414 92bd 89e4 153f 2f7c 8fbc
00000020: 29a4 aabe
-0.12775627 0.12775625 -0.32434446 0.016453741 -0.7464243 -0.07132748 0.5855184 -0.01751527
-0.3332837

encoder.level2.0.d8.depthwise.weight f4 [3, 1, 3, 3]
00000000: 55d8 2dbd 89c0 ef3d 98f9 823c 3766 073f
00000010: e5f9 0bbf 6fba 3b3e 03d1 55bd 5bf1 8f3d
00000020: 5561 77bd f94b 013e 308e 223e 0a44 173e
00000030: 5832 8dbe a06c 44bf b1ff b6be 17ac 943b
00000040: 73c1 0abd c1d3 26bb a473 13bf df21 27bf
00000050: 36b9 17bf 77bd a7be 4cb8 fcbb e82f 45be
00000060: 7d58 723d cfc4 6d3e ad6f 9e3d
-0.04244264 0.11706645 0.015988156 0.5289034 -0.54678184 0.18332838 -0.052201282 0.07028457
-0.060395557 0.12626638 0.15874553 0.14772049 -0.27577472 -0.7672825 -0.35741952 0.0045371163
-0.033875894 -0.0025455805 -0.5759833 -0.6528606 -0.59266984 -0.32761738 -0.0077123996 -0.19256556
0.05916642 0.23219608 0.07736144

encoder.level2.0.d8.pointwise.weight f4 [3, 3, 1, 1]
00000000: 5dd4 b8bb 4286 383f c875 523e 4f89 123f
00000010: 116f 0c3f 0885 14be f827 dbbe 600a f23e
00000020: 5b15 36bf
-0.00564055 0.7207986 0.20552742 0.57240766 0.54856974 -0.14503872 -0.4280393 0.4727354
-0.71126336

encoder.level2.0.d16.depthwise.weight f4 [3, 1, 3, 3]
00000000: 82e8 8abe fa5d 94be 7609 57be f261 093d
00000010: 88ae dcbe e0ce 96be 12f8 553e c6ec 88bd
00000020: f40e 793e 3eb5 a23e e682 553e a07e d73e
00000030: e29f acbe 37b9 17bd 8eeb babe bf14 243d
00000040: 9ebf d4bd cb7c 21bd dbc7 47bf ad5d 0bbf
00000050: d8f6 31bf 8ca3 183e bede eabe 7cbd 153e
00000060: 93e0 a0bd 37dd bd3d b9d7 1bbd
-0.27130514 -0.28977948 -0.20999703 0.033540674 -0.43101907 -0.29454708 0.20895413 -0.06685786
0.2432211 0.31778902 0.20850715 0.42088795 -0.3371573 -0.03704187 -0.3650784 0.040058848
-0.103881106 -0.039425652 -0.7803933 -0.5443981 -0.6951728 0.14906138 -0.45873064 0.14623064
-0.07855334 0.09270709 -0.038047526

encoder.level2.0.d16.pointwise.weight f4 [3, 3, 1, 1]
00000000: 73c1 0a3f 42aa debe a697 b9bf b83c bfbe
00000010: 92e0 203f d2b9 29be 29a4 2abf e0ce 16be
00000020: f89e 11bf
0.5420143 -0.4348927 -1.4499404 -0.37351012 0.6284267 -0.16574791 -0.6665674 -0.14727354
-0.5688319

encoder.level2.0.bn.bn.weight f4 [16]
00000000: dbd9 5a3f 692a a33f 937b 7d3f 0a44 973f
00000010: aea5 573f 43bc 713f f161 893f e157 603f
00000020: a5fc 5c3f da1a 583f defd 803f 67e2 563f
00000030: c5c8 e23e 052b 353f ebad 4a3f 831e 443f
0.8548867 1.2747318 0.99016684 1.1817639 0.8423718 0.9442789 1.0733014 0.8763409
0.86323005 0.8441597 1.0077474 0.8393921 0.442938 0.7076877 0.7917163 0.7660906

encoder.level2.0.bn.bn.bias f4 [16]
00000000: f1c6 2cbe a732 16be eef5 96be f485 2f3e
00000010: 7114 9bbe f544 32be f803 b5be 66be 30be
00000020: 5af1 8fbe aa9e 88be e4b1 bfbe 900f 8b3e
00000030: dba3 a13e 5c8c 6cbe 7e05 62bd 8c91 05be
-0.16872765 -0.1466776 -0.29484504 0.17140943 -0.30289033 -0.17409118 -0.3535459 -0.17260131
-0.28113824 -0.2668355 -0.37440407 0.2716031 0.31570324 -0.23100418 -0.05518102 -0.13043803

encoder.level2.0.bn.bn.running_mean f4 [16]
00000000: 4163 513f 5e0d 1f3e 1e7f 69bf 6236 973e
00000010: 1c2e 0f3f f4a6 fb3e ab17 ad3e 70d1 de3e
00000020: 1e91 cf3e c93d 19bf ed61 513f e0f5 7b3e
00000030: 8f2b 2abf 90fc 5abf ba26 6e3d 8275 33bf
0.81792074 0.15532443 -0.9120959 0.29533678 0.5592973 0.49150813 0.3380712 0.43519163
0.40540403 -0.598599 0.8179005 0.24605513 -0.66472715 -0.8554163 0.0581424 -0.7010118

encoder.level2.0.bn.bn.running_var f4 [16]
00000000: e14d 8c3f 1e08 bc3f 2a13 763f 5fc1 273f
00000010: 82a8 1f3f e3af 6e3f ff2c 983f 24a8 1f3f
00000020: 2ee3 543f dc54 863f a3d0 863f 1365 753f
00000030: 2fd7 a43f d6a5 1840 bb83 3a3f 1624 cd3f
1.0961267 1.4689977 0.9612299 0.65529436 0.623665 0.9323713 1.1888732 0.6236594
0.8315915 1.0494647 1.0532421 0.9585735 1.2878169 2.3851218 0.72857255 1.6026638

encoder.level3_0.c1.conv.weight f4 [6, 35, 3, 3]
00000000: e682 55bd e60b 9fbd 7ef3 4e3d 1f0d 43bd
00000010: cc7c a1bd 4b2f 33bd 0eb0 89be 43bc 71be
00000020: 66d0 c3bd 4a1d 203e e428 763e 8bf6 a83e
00000030: 9bca 983e b2ff b63e 5fe6 4b3e 8f74 2e3e
00000040: 61a5 4e3e 3fb5 223e f3fc 65be c392 a9be
00000050: abc2 2ebe f0a2 86be 6759 8dbe 6264 d1bd
00000060: bb1f 73be fda5 60be ed48 a7bd e45e 2fbd
00000070: 2ff3 45bd db2c ebbc 8f0f 0bbe d454 06be
00000080: 1b8f bdbd d05f 4abe caab 8bbe 5e4b efbd
00000090: 7b46 dfbb a2be 84bd 64ff 2dbd 3fc7 b5bd
000000a0: 8171 d4bd 8d50 88bd da91 0ebe 509b 25be
000000b0: c380 96bd 70de 61be 3d7f e9be 8c1a cfbe
000000c0: 24b0 80be 8ad2 02bf 22de d8be af40 34be
000000d0: ec48 27be f273 9c3c 4345 3bbb 66ac 1d3c
000000e0: 5ec2 253b 48e7 e63d fbd4 4a3e 89ae dc3d
000000f0: ea65 fe3d 9e24 783e d183 f03d be67 343e
00000100: eef5 163e 2780 843c 91bc 7a3e e7a6 7b3e
00000110: cae1 c43d 5d39 5c3c 457b 743d 07c6 113e
00000120: 73d3 1d3d 1959 843d bdba 44be 2b10 1dbe
00000130: 964c 93bd 60f8 debd bede eabc d342 f3bd
00000140: e0ce 16be a0e3 7abe d2ee b8be 5785 9dbe
00000150: 0e03 9abd 5bf1 8fbe eadc b4be c014 a4bd
00000160: df21 27be 5bdf 7cbe d6ae 653d e965 fe3d
00000170: 53f5 843d 9cee 3e3e 2c10 1d3e 509b 253d
00000180: f090 f33d 6b3c 363d bff0 7dbc 3f2c d9bc
00000190: 6588 77bd e2f2 bcbc 4062 12be 8b08 bcbd
000001a0: c8fe 9b3d 65be b0bd ecad ca3d bc58 663e
000001b0: 6523 543d 08ea b73e 990b 163e 9e24 783d
000001c0: 5773 8a3e 7ef3 4e3e b8c5 08be bd43 8e3d
000001d0: 761b 6a3e 0b32 843e bc96 9e3e dc3e 7e3e
000001e0: 7592 a03e 97f9 023f 895b cc3e eb12 6e3e
000001f0: c910 af3e 8dd9 513e 938d 10be eb24 81bd
00000200: 3654 74bc 54b4 87bd b706 06be 0885 14be
00000210: 676b 20ba 04e3 e8bd a219 34be e794 e8bd
00000220: d58a 3fbc 37ef d03d 71f0 f43d 61a5 4e3d
00000230: 1181 9fbc d083 f03d ea77 913d ef7e e0bd
00000240: 28a4 aabd 5c03 23be c26e 03be 249d dbbd
00000250: 264a 4bbe 41fd 6ebe a8cd f2bd 5ec2 25be
00000260: cd29 91bd 5dd4 b83b 9994 5fbe 3a49 b0be
00000270: e17b 06be 3925 8abe bc43 8ebe c6ec 08be
00000280: 8c91 05be c002 11be b818 19bd 7055 98bd
00000290: 8dc7 3ebd ba60 65bd c875 52be 1552 35be
000002a0: 1c4e c03b 8e50 08be 8eeb 64bd 43ce 043d
000002b0: 50ad b83d c08b da3c 68f4 69bc 169a 013e
000002c0: 340c 283e 6906 7d3d e7b8 0e3e d48a bf3d
000002d0: 692a a3be c002 91bd a9f1 183e 1d60 d3bd
000002e0: 2e58 e9bd c6b6 cfbd 4174 25be a632 16be
000002f0: b164 dabd a007 21bc 052b b53d 72af f7bb
00000300: 44bc f13d 0a20 f13d ec36 143e e316 633d
00000310: b311 ca3d b4be 393e ae93 c4bd c5b6 4fbd
00000320: 1cb3 e33c 8430 57bd 4cca 0fbd 1181 1fbd
00000330: 2bda e3bd 0507 0fbd 5f0a 723d 90fd 77bd
00000340: 2f05 59bb bb84 0b3d edd1 703d ce29 91bc
00000350: dba3 213c 2c22 303d 8b91 053e 9033 b13d
00000360: bef0 fd3d acd4 413e 2155 0f3e 8c3e 753e
00000370: 70de 613e aa9e 083e 4cca 0f3e 0aa9 3a3e
00000380: 1ba1 503c f2c6 2c3e fe2e 2a3e 2c10 1d3d
00000390: 5c15 b63c e55e af3b 33fa 94bc 600a f2bd
000003a0: 1cd7 09be 89e4 95bd c6b6 cfbd a290 6abe
000003b0: b39a 13be 9f36 8bbe a915 bfbe ed6c 4dbe
000003c0: f532 9fbe 7b34 ccbe 65be 30be f668 d8bd
000003d0: cfc4 edbd 44f2 aabd eee3 833d 831e c4bc
000003e0: c875 d23c 8af6 283e c126 373e 68f4 e93c
000003f0: 5956 33bc a968 4fbd 3ea3 8f3d 307c 8f3d
-0.052126788 -0.07765941 0.05052518 -0.047619935 -0.07885131 -0.043746274 -0.26892132 -0.23606972
-0.09561233 0.15636173 0.24039036 0.33000597 0.29842076 0.35741955 0.19912098 0.17036651
0.20180275 0.15889452 -0.22459774 -0.33119783 -0.17066447 -0.26296186 -0.2760727 -0.102242246
-0.23742573 -0.2193832 -0.08168206 -0.042815104 -0.04832762 -0.028707912 -0.13580154 -0.13118297
-0.09255811 -0.19763112 -0.27279502 -0.11684297 -0.006813822 -0.06481673 -0.042479888 -0.08875894
-0.10373212 -0.06655989 -0.13922825 -0.16172528 -0.07348778 -0.2205751 -0.45604888 -0.4044994
-0.25134385 -0.5110251 -0.42356974 -0.176028 -0.16336411 0.019098256 -0.0028575219 0.0096236225
0.0025292854 0.11274582 0.19807808 0.107754774 0.12421782 0.24232718 0.11743892 0.176177
0.14742252 0.016174389 0.24485995 0.24575387 0.09613378 0.013441411 0.05968787 0.14235698
0.03853173 0.064623065 -0.1921186 -0.15338199 -0.07192342 -0.108872175 -0.028670665 -0.1187798
-0.14727354 -0.24500895 -0.36119705 -0.30765793 -0.07520114 -0.28113827 -0.35324794 -0.0801177
-0.16321515 -0.24694578 0.05607494 0.124217816 0.064921044 0.1864571 0.153382 0.04043132
0.11892879 0.044491213 -0.015499293 -0.026510356 -0.06043281 -0.023065034 -0.14295292 -0.09181317
0.07616955 -0.08630065 0.09896454 0.22494787 0.051791567 0.3592074 0.14652862 0.060581796
0.27041122 0.20210072 -0.13356674 0.06946514 0.22862038 0.2581943 0.30974376 0.24828666
0.31361738 0.51162094 0.39913586 0.23249404 0.34192494 0.20493145 -0.14116506 -0.0630587
-0.014912656 -0.06626192 -0.13088499 -0.14503872 -0.000611952 -0.11371425 -0.17587903 -0.11356526
-0.011690815 0.102018766 0.11959923 0.050450686 -0.019470723 0.11743891 0.0710295 -0.10961711
-0.083320916 -0.1591925 -0.1283522 -0.107233316 -0.19852504 -0.23338796 -0.11855632 -0.16187426
-0.07088051 0.00564055 -0.2183403 -0.34430867 -0.13133194 -0.26981524 -0.27786052 -0.13371572
-0.13043803 -0.14161205 -0.03737709 -0.07438171 -0.046577025 -0.05600045 -0.20552742 -0.17707093
0.0058686864 -0.13311979 -0.055888705 0.03242327 0.09017432 0.026677966 -0.014279462 0.12656435
0.16410905 0.06177369 0.13937722 0.09352651 -0.31868294 -0.07080603 0.14935936 -0.103210665
-0.11393772 -0.10142283 -0.16157629 -0.14667758 -0.106637366 -0.009828478 0.08846096 -0.0075587565
0.11803487 0.11773689 0.14474076 0.05544175 0.09866657 0.18139154 -0.0959848 -0.050711412
0.027795367 -0.052536502 -0.035105035 -0.038941447 -0.111255966 -0.034918804 0.059091922 -0.06054455
-0.0033114662 0.03406213 0.05879395 -0.01772013 0.009865726 0.04300134 0.13043801 0.08652413
0.123994336 0.18928784 0.13997318 0.23949641 0.2205751 0.13341776 0.14042014 0.18228546
0.012733723 0.16872767 0.16619489 0.0383455 0.022226982 0.0053518885 -0.01818571 -0.11818385
-0.13460964 -0.0731898 -0.10142283 -0.22906736 -0.14414482 -0.2719011 -0.37321213 -0.20061083
-0.31093565 -0.3988379 -0.1726013 -0.10566895 -0.11609804 -0.0834699 0.064399585 -0.02394033
0.025690928 0.16500297 0.17885877 0.028558925 -0.01094588 -0.05063692 0.07013558 0.07006109

encoder.level3_0.d1.conv.weight f4 [8, 6, 3, 3]
00000000: 34e8 01be 6140 2b3e 23f0 6b3e 7d51 813e
00000010: f8b0 a4bd 1281 9f3e 4062 923d 820c b1bc
00000020: 282d f4bd 0a32 843e c08b da3d c409 603e
00000030: b6e2 5f3d 992f bc3c eb24 01bc 53f5 843e
00000040: 479f 9a3e e965 fe3c 5d9e 7fbd 553d d1be
00000050: fa4b 81bd fca5 603e fb6f a73e 0920 713e
00000060: 7a99 efbd 388a adbd c910 afbd fae6 ddbc
00000070: e794 683e 53f5 04be 3cf6 9f3b fd2e 2a3e
00000080: 19f4 e03d 611c 05be 495e 1d3e e3c3 d2bc
00000090: f019 3dbe 42aa de3c 7055 18be ea00 5bbc
000000a0: 132e 8f3e 3a49 303e 73c1 0abb ec9b 373d
000000b0: 54c6 9a3e 6a2a a33d e17b 06be 61c9 f43d
000000c0: e29f 2cbd 9033 b13e 3ac0 e63d bc96 1e3e
000000d0: d578 acbd 5acd 69be 6a2a a33d 7226 2e3e
000000e0: d401 f63d c133 153e 046c 32be e54c 1cbd
000000f0: 276e 713e 1f96 0c3e 4f00 c93e 2780 843d
00000100: feb7 f3bc 622e 183e 4f12 dcbd 5773 0a3e
00000110: 8da3 983e b447 033e b68f cfbd 900f 0b3c
00000120: 86dd 463d 08fc 4abe 9245 c43c 5af1 0fbe
00000130: 9086 c1bd 8654 fdbd 83a7 0d3d 0a20 f1bc
00000140: 4174 a5bd f376 153e d86d 683d d501 763e
00000150: 2a63 2d3e ecc1 033e 26d3 943e e8b8 0e3e
00000160: 5ed4 38be 6f31 723d 52f5 84be 01ad afbd
00000170: 9ed1 67be 2a51 9a3d 4f89 123f d749 c23d
00000180: 9fbf d439 e71d 323e 0f27 c03b 18ac 94bb
00000190: c138 cabd ee07 aa3c 2c75 c03e a4fc dc3c
000001a0: a4d8 363e 4f36 82bd d10c 3a3e d21e cd3d
000001b0: 021c bdbd ab27 d23d 3d7f 693e 8eeb e4be
000001c0: 964c 133e 8ae4 153e 67f4 e9bd 0507 0f3e
000001d0: 08d8 24be c2f7 4c3d 7bab 823e 8c91 053d
000001e0: 5785 1dbe d625 9cbe 8d2c 623d f420 8c3d
000001f0: c822 c2bd b93c 3f3e 5797 303e b9c5 883e
00000200: 91ce 0dbc 6dfb 383e 238b c8be bb72 f8bd
00000210: b72a ac3c 4982 c33d f13d e3be 8383 e73b
00000220: b78f 4fbb f161 893d d8e4 1ebe 4716 513c
00000230: 719d e4bd 692a 233e 0d7a d03b 11e6 423e
00000240: 0bbb cdbd 64ff adba 132e 8f3d 2b63 2d3e
00000250: a4d8 b6be 697d b3be 4dca 0f3d d2a7 963e
00000260: 25c1 813d 8d50 883d 804d ae3d 37cb 2abd
00000270: 2bda e33d 8bf6 a8bd 6747 fa3d d578 2cbe
00000280: af5d 803d ce3b 24be 2792 17bd 7f17 f53d
00000290: 15ff a4be 1af4 603d df45 cd3d 8701 edbc
000002a0: 6906 7dbd a632 163e 6535 673d 601c 053e
000002b0: 99b8 053e eaee c73d 6364 513c f6cd 7b3e
000002c0: 5148 953e 61c9 743d 104b 66bd f9b0 243e
000002d0: 4174 a53d 5d27 493e 3471 4b3e 2c87 d3bc
000002e0: 3630 cebd 7326 2e3e 9ed1 67be 31b2 48be
000002f0: dfce 96bc ead3 90bd 4186 38be 1d60 533e
00000300: d478 acbe f544 32be 990b 96bd e428 f63d
00000310: ae81 313d fa39 ee3d 93f2 b3bb 6da8 a8bd
00000320: c1af 803e f3fc e5be 62b7 e1be 19f4 60be
00000330: 32c4 5bbd 688f 46bd 8dc7 bebc 1ba1 d03d
00000340: 97f9 023d 340c a83b a461 80be 622e 98bd
00000350: 92ce 0dbe 7055 18be e70b 9fbe 10c2 9cbe
00000360: 0100 403d 622e 983d 1393 b23d 3866 873e
00000370: b8c5 08bb 8f62 1b3e d637 af3d 9086 c1bd
00000380: 697d 333d cf5f 4a3e 90fd 77bd 1ca1 d0bc
00000390: a3c6 23bd 74d3 1d3e 8171 543c 58a9 c33d
000003a0: 868a b63b 0d68 bdbe 7338 41be 26f7 3abd
000003b0: 772d fd3c 2b87 d3bd dab5 b4bb 39ae d3bd
000003c0: 4198 4b3e 41fd 6e3d 7a75 c9bc f497 423e
000003d0: be55 213c c7ec 883e a2b4 9039 fc81 3abe
000003e0: 105d 793e 7ef3 ce3e 48b1 ad3e fd1c 97bd
000003f0: 3a49 30be d454 063d d2cb bcbd 15db 7ebe
-0.12686235 0.16723777 0.23040824 0.25257483 -0.080415666 0.3115316 0.07147646 -0.02161241
-0.11922675 0.25819427 0.106711864 0.21878725 0.054659568 0.022971915 -0.007882337 0.25968418
0.30199644 0.031054454 -0.062406886 -0.40867105 -0.063133195 0.21938318 0.32702622 0.23547377
-0.11699195 -0.08473629 -0.085481234 -0.027087677 0.22713052 -0.12984209 0.0048816483 0.16619487
0.10984058 -0.12999107 0.15367998 -0.025728172 -0.18466926 0.027180795 -0.14876342 -0.013366917
0.2796484 0.17215434 -0.0021172434 0.044826433 0.30229437 0.07967074 -0.13133194 0.119524725
-0.042144664 0.34609652 0.11267133 0.15487188 -0.084214844 -0.22832242 0.07967074 0.17006853
0.120120674 0.14570524 -0.17424017 -0.03815927 0.23577176 0.13729142 0.39258048 0.064697556
-0.02975082 0.14861444 -0.107456796 0.13520561 0.2981228 0.12820321 -0.101348326 0.008487597
0.048551105 -0.19822705 0.023958955 -0.14056912 -0.09449494 -0.12369637 0.03458358 -0.029434223
-0.08078814 0.14596157 0.05674538 0.24024136 0.1693236 0.12866944 0.29067343 0.13937724
-0.18049762 0.059129175 -0.25968415 -0.0857792 -0.22638556 0.07535012 0.57240766 0.0948674
0.0004057856 0.1739422 0.005864031 -0.0045371167 -0.09874106 0.020755734 0.37589395 0.026975937
0.1785608 -0.06358015 0.18168952 0.10015644 -0.09233858 0.10261472 0.22802444 -0.44710964
0.14384684 0.14637962 -0.11423569 0.13967521 -0.16098034 0.050040968 0.25521454 0.032609507
-0.15382896 -0.30497617 0.05521827 0.06842223 -0.0947929 0.18675508 0.17245232 0.2671335
-0.008655206 0.18064661 -0.39168653 -0.12131258 0.021016462 0.09546334 -0.44383195 0.007065238
-0.0031671354 0.06708134 -0.15516984 0.012761659 -0.11162842 0.15934147 0.006362206 0.19033076
-0.10045441 -0.0013274965 0.0699121 0.16932361 -0.3571216 -0.35056618 0.03510504 0.29424912
0.063356675 0.06655989 0.08510876 -0.041697707 0.111255966 -0.08250149 0.1222065 -0.16842969
0.06267869 -0.16038439 -0.037004616 0.11967372 -0.32225862 0.054920293 0.100230925 -0.028931392
-0.06177369 0.14667758 0.056447405 0.12999105 0.130587 0.09762366 0.012780282 0.24590287
0.29156736 0.059762362 -0.05622393 0.16083135 0.08078814 0.19643922 0.19867402 -0.02582129
-0.10067789 0.17006855 -0.22638556 -0.19599225 -0.01840919 -0.070716694 -0.18019964 0.20642133
-0.33685935 -0.17409118 -0.07326431 0.12019518 0.043336563 0.11632152 -0.0054915636 -0.0823525
0.2513409 -0.44919547 -0.44085222 -0.21968116 -0.053653903 -0.048476607 -0.023288513 0.101869784
0.03197631 0.005128408 -0.25074494 -0.07430722 -0.13848332 -0.14876342 -0.31063768 -0.30616808
0.046875004 0.07430722 0.087194584 0.26445174 -0.0020869803 0.15174316 0.08555572 -0.09449494
0.043820772 0.1976311 -0.06054455 -0.025467448 -0.039984357 0.15412694 0.012966515 0.09553784
0.0055707125 -0.36993447 -0.1886919 -0.045645855 0.030905468 -0.103285156 -0.0055148425 -0.10335965
0.19882299 0.05834699 -0.02459215 0.19003278 0.009847103 0.26743147 0.00027600402 -0.18213648
0.24351907 0.40420145 0.33924317 -0.07378576 -0.17215434 0.032795742 -0.09218563 -0.2488826

encoder.level3_0.d2.conv.weight f4 [6, 6, 3, 3]
00000000: 3530 ce3c fb81 3aba 179a 013d 12f8 d5bd
00000010: bf79 47bd 8813 80bd b83c 3f3e d230 e0bd
00000020: 1d4e 40bd 97f9 02bd d97f fbbc 9098 543c
00000030: 6d72 6f3d ee7e 60bd 611c 853c 9dad 413d
00000040: 9245 c4bd 335f b8bd 1859 043c 953a 803c
00000050: ced6 003d f6f1 a1bd 324d a53d 5897 30bd
00000060: 4b1d a0bd 5c15 b63c 4eee b5bd ace6 d43c
00000070: 4ba6 e93c 31b2 483d 7114 1b3c abc2 ae3d
00000080: 5ff8 5e3d 1723 4bbd 18d0 babd dc50 11bd
00000090: 1b8f 3db7 efa2 06bc 045a 1fbd 1552 b53b
000000a0: ab9e 88bc 0e39 53bd 9121 1e3e 9428 6dbd
000000b0: 949f a33d bf02 113d 953a 80bc 7fb2 51bb
000000c0: f02b d03c 761b 6a3c 7963 36bd 6cd7 92bd
000000d0: cbf3 573e 2951 9a3e 2c22 303e a5fc 5c3d
000000e0: 340c 283e a573 933c 3f3e ec3e be67 b43d
000000f0: bae9 ae3c a8df 05be b94e d23d d2cb 3c3e
00000100: 729d e43d 9416 5a3e d8d2 0bbd 76b6 463d
00000110: ee5a 3a3e 1464 c8bd 8ad2 023e a5fc 5cbd
00000120: 85ef d93d 66ac 1dbe 9bee 3e3d afa5 d73d
00000130: 3117 6c3b 36a7 043e b8b3 753d 399c c0be
00000140: 5cb0 12bd 3878 9abd 96b1 b6bd bede 6abc
00000150: 1cc5 76bd 8f86 41be 6918 90be 4569 e1bc
00000160: bc96 1ebe 9aa6 f2bd 20ba b2bd e44c 9cbc
00000170: 0490 d8bd ced6 80be 820c 31bc 3a25 8abe
00000180: 83a7 0d3e 0136 793d 467b 743e 3866 07be
00000190: f94b 81bd 7fb2 d1bd af1c 0ebe d737 2f3d
000001a0: b1db 90bd 03e3 683e 745c 67bd 7c34 4c3e
000001b0: c7fe 9b3d e4b1 3fbd bdde eabb 2b10 1d3e
000001c0: bc96 9e3e a9f1 983d 9bee 3ebe e72f 45bd
000001d0: 5c9e 7fbe 74c1 0a3e 2e34 c3bd 820c 313e
000001e0: 266e 71bc 825f c1bd 5e4b 6fbd a756 3c3e
000001f0: a22b 473e 4e65 ecbc 1a18 873c 4445 bbbc
00000200: 83a7 0d3d 6523 54bd 4321 15bd 1ca1 50bd
00000210: 77b6 463c 201f d63c cbf3 d73c a4d8 36bd
00000220: d454 86bc 17ac 143a a7d0 2c3e a6bb 5f3e
00000230: 6488 f73d 9fbf 54be 44f2 2abe 8c91 05be
00000240: 1c2a 1abe c11e 5f3e 6240 abbd 4162 92bd
00000250: f161 8939 8713 00be ede3 833d cea0 c7bc
00000260: 0e27 c03d 6759 0d3d 3495 71bd 948d 103d
00000270: 7a10 a6bd 29b6 bd3d 458d 07be f6f1 a13c
00000280: c51b f3bd fec9 063d de98 ddbd ea12 6e3d
00000290: d2a7 16bd cc05 6bbd ab4b f8bc b447 03bd
000002a0: 4174 a53d 5bf1 0f3e bbfb c13c 5820 7abc
000002b0: 8778 a33d c002 913d 8a49 b93e 9357 57be
000002c0: c1d3 263e da91 0e3e 48c3 c0bd d2b9 293c
000002d0: d401 76bd 324d a5bc 2fcf 9f3c 9882 cc3e
000002e0: 3c5b c33d 361e 3b3e 9f36 8bbd a1f5 0d3c
000002f0: 8af6 a8bc 7b99 efba bb96 9e3d 0519 a23c
00000300: 7d6a 85bc 89d2 823d ad6f 1ebe 9aa6 723d
00000310: cc8e b43d b040 b43d 622e 983d bf9d edbd
00000320: 2ada 63bd f02b d03d de0f 14be cd17 febd
00000330: bc9f 9dbd b4be 393d fc81 babd 804d ae3d
00000340: 63db 87bd 75f7 c33c c26e 833e 7692 a0be
00000350: 1e84 793b d230 60be 2ac8 50bd 2389 1abe
00000360: 7751 233e ecad ca3d d59c 523d a520 03be
00000370: b93c 3f3e cc05 ebbd 8778 233e 2709 cebd
00000380: e045 4d3d a1a2 7d3d 3878 1a3d 6352 be3c
00000390: 0d03 1a3e 3da3 8f3d 8c91 853d 6c0d 4cbd
000003a0: 7c46 5f3d d230 603d 0f27 40bc 3005 59bd
000003b0: b93c bfbc 7afe 92bb 831e c4bd a06c 443d
000003c0: 5f81 a8bc 9ab8 053e b706 063d 9528 6dbd
000003d0: eb00 5bbd 80c4 e4bd ba84 8bbe 3aae d3bd
000003e0: 5e5d 82be 4982 433d f99e 11bc 2780 043d
000003f0: 74c1 0a3d bf67 b43c 4af9 79ba ffc9 863c
0.025169471 -0.00071147055 0.031641092 -0.10447706 -0.04870009 -0.06253725 0.18675506 -0.10946812
-0.046949495 -0.03197631 -0.030700611 0.012975827 0.058458734 -0.05480855 0.016248884 0.04728471
-0.09583582 -0.09002533 0.008077882 0.015652934 0.031454854 -0.079074785 0.080713645 -0.043113083
-0.07818087 0.022226982 -0.08883344 0.0259889 0.028521677 0.04899806 0.009465323 0.08533224
0.054436084 -0.04959401 -0.09121722 -0.035477504 -1.1298597e-05 -0.008217557 -0.038904205 0.0055334666
-0.016677221 -0.051568083 0.15442492 -0.057900026 0.079894215 0.03540301 -0.015652934 -0.003199726
0.025411576 0.014288774 -0.04452846 -0.07169995 0.21089093 0.30140045 0.17200536 0.053951878
0.16410905 0.01799948 0.4614124 0.0880885 0.021351684 -0.130736 0.102689214 0.18437126
0.11162843 0.21297675 -0.034136623 0.048513852 0.1819875 -0.097847134 0.12775627 -0.053951878
0.10641388 -0.15397796 0.04661427 0.105296485 0.0036024565 0.12954411 0.059985846 -0.37619188
-0.03581272 -0.07542461 -0.089205906 -0.014335332 -0.060246572 -0.18898986 -0.28143623 -0.027516017
-0.15487188 -0.11848183 -0.08726907 -0.019079633 -0.10574344 -0.25163883 -0.010806205 -0.26981527
0.13833432 0.060842518 0.2387515 -0.13222587 -0.06313319 -0.102391236 -0.1387813 0.042777862
-0.07073153 0.22742848 -0.056484655 0.19941896 0.07616954 -0.04680051 -0.0071676658 0.15338199
0.30974376 0.07467968 -0.18645708 -0.048141386 -0.24962753 0.13550359 -0.09531437 0.17289928
-0.014735734 -0.09442045 -0.058421485 0.1839243 0.19450238 -0.0288569 0.016490985 -0.022860177
0.03458358 -0.051791567 -0.036408674 -0.050934896 0.012128464 0.026137888 0.026361367 -0.0446402
-0.016397871 0.00056713953 0.1687647 0.21848926 0.12086561 -0.20776223 -0.1669398 -0.13043803
-0.15055126 0.21789075 -0.083618894 -0.07147647 0.00026203648 -0.12507449 0.06439958 -0.02436867
0.09382449 0.03450909 -0.05898018 0.03529127 -0.081086114 0.0926326 -0.13237484 0.019768696
-0.11870531 0.03290748 -0.10820173 0.058123507 -0.03678114 -0.057378575 -0.030309519 -0.032050803
0.08078814 0.14056914 0.023679605 -0.0152665 0.07981973 0.07080603 0.36188918 -0.210295
0.16291715 0.13922825 -0.09412247 0.010359244 -0.060060337 -0.020178411 0.019507973 0.39943385
0.09538886 0.18273243 -0.067975275 0.0086645195 -0.020625371 -0.0018279994 0.07743593 0.01978732
-0.01628613 0.06387813 -0.15472288 0.059240915 0.08816299 0.08801401 0.07430722 -0.11602353
-0.05562798 0.101646304 -0.14459178 -0.124068834 -0.076964825 0.045347884 -0.09106824 0.08510876
-0.066336416 0.023921708 0.2567044 -0.3136174 0.0038073133 -0.21893623 -0.05097214 -0.15091376
0.15949045 0.09896454 0.051419098 -0.12805422 0.18675508 -0.11475715 0.15963946 -0.100603394
0.050115466 0.061922673 0.037712306 0.023232644 0.15040226 0.07013557 0.065219015 -0.049817488
0.05451058 0.05473406 -0.011728062 -0.052983463 -0.023344385 -0.0044859024 -0.09576132 0.047955155
-0.020569501 0.13058701 0.032721248 -0.05790003 -0.053467672 -0.11170292 -0.272497 -0.103359655
-0.2546186 0.04773167 -0.008888 0.032348778 0.033875898 0.022022126 -0.0009535743 0.016453741

encoder.level3_0.d4.conv.weight f4 [6, 6, 3, 3]
00000000: 07c6 113d a697 39ba b447 83bd 6240 abbd
00000010: 2d34 c3bd 0d8c 63bd 7ea0 bebc a290 6abc
00000020: 4e65 ec3d 16ff 24be 4eee 35bd 4dca 8f3c
00000030: de86 4a3e a3b4 103f b852 1abe 525a a83c
00000040: c138 ca3c ea89 a4bd 4162 123e 0cf1 06bd
00000050: 9121 9e3d 59a9 c3be 3d08 b33e 86ef 59be
00000060: f8b0 24bd 9a41 4fbd e55e af3d 814d ae3c
00000070: 6d96 15bc eee3 033b b9c5 08be f9b0 a43d
00000080: 69b3 6cbe 803b 1b3e a219 b43d 1e60 d33b
00000090: c409 e03d 4333 283c 4d77 ffbc d9e4 1ebf
000000a0: 53a2 f43e b77d 3cbe 5acd e93c ede3 03bd
000000b0: 197d aa3d b052 c7bc c0af 00bd f915 483b
000000c0: 696e 8fbe 7de1 bb3e a007 a1be b68f 4f3d
000000d0: 75f7 c33c f544 b23c 2e34 c3bb c35c 70bd
000000e0: 1564 48bc fc6f a7be fbd4 cabd 179a 01bf
000000f0: 7bab 02bd 196b 173d 15ff 243d bb0d d53d
00000100: 81c4 643c f485 2f3e 1a6b 17be ca46 683b
00000110: 8442 6a3e 80c4 e4bd 509b a53d 03bf c2bd
00000120: f420 8c3d 4f89 12bd 5661 f73d 8a49 b93d
00000130: 276e f1be a756 3c3e 131c 7c3d 601c 85bd
00000140: d75b d53d 8ec7 be3c 074f dbbd 21cc 453d
00000150: d737 2fbd 0997 27be fa4b 01bd a756 bc3c
00000160: 9ebf d43c b02e 21bd 81c4 643c e965 7ebd
00000170: 964c 93bd 4186 383e 4504 3ebc 2880 84b9
00000180: 3d08 b33c 324d 253d 2438 b83d 39ae d3bd
00000190: 601c 05be f8b0 24bd 963a 003e cbe1 c4be
000001a0: a5c2 833e 37b9 173e 3e08 b33d 2255 0f3e
000001b0: 5290 613e 410f 023d f803 b53d 6c72 6fbd
000001c0: 8c08 bc3d 21cc c53b d366 993c 831e c43d
000001d0: fc81 3abd e670 423d dbd9 5abd 9528 6d3d
000001e0: c480 16be 90fd 77be ff52 50be e428 f6bd
000001f0: 4716 51bc 4f9b a53d 68f4 69bd c2e5 b9bd
00000200: 351e bbbd fb6f a7be c25c 70be c934 d5bd
00000210: 334d a53e 0a32 04be 4fad b83e b83c bfbc
00000220: 3ce4 0cbd a856 bcbd d466 193f 8da3 983e
00000230: 659a 0a3f c7fe 9b3d 7067 2bbd 5932 0d3e
00000240: 18ac 94bc 9dad c1bb 761b eabc 9133 b1bc
00000250: 7b34 4c3e 1b2a 9a3c 090e 5ebe ea65 7ebd
00000260: aef8 e7be 5a68 c6bd 3483 5e3c bc43 8ebd
00000270: 6e31 723e bf67 b43e abb0 1b3e 468d 073d
00000280: 36b9 973c 324d 253e cfd6 003c b4be b9bd
00000290: 57fc 53bd 4f24 6fbd fe2e 2a3c a632 96bd
000002a0: fa5d 94bd 08d8 243d 483a f73d 132e 8fbd
000002b0: e670 c23d f432 9f3d 553d d13e 03f5 fb3e
000002c0: 0abb cd3d 831e 443d 62c9 f43b ad6f 9e3d
000002d0: 1dc5 763d e9ee c7bc aef8 67bd a461 003e
000002e0: 9bdc 2bbe ce29 913e eb9b b7bd f89e 11bd
000002f0: c751 ac3d 0100 c03d dd74 b7bc d354 863d
00000300: ace6 d4bd a8f1 983c 7f05 e2bd d749 423e
00000310: 0b56 aabc 5b03 a33c 04f5 7b3d 48e7 e63d
00000320: 762d fdbc 0d03 1a3e 0189 893e 429a 0a3f
00000330: 554f 64bd 169a 813d a8f1 18bd 2c87 d33c
00000340: f7df 8e3d 5307 983c d3e4 9c3e e70b 1fbe
00000350: 804d 2e3e 771b eabc f485 2fbe 5db0 12be
00000360: 6a2a 233e 4e89 123e 5956 333e cb58 fbbd
00000370: 5b15 b6bd 5419 abbd 30a0 353e 4b41 463b
00000380: 2cfe 093c ef07 2a3e 89ae dc3c 7ccf a8bc
00000390: 38ef d0bc 59bb 563d b9e9 ae3e a2b4 903c
000003a0: 5148 95bd 13b7 58bc 084f dbba 9fd1 673d
000003b0: b040 343c b2ed a33d dc62 243e 9021 9ebd
000003c0: a3c6 a33d 5cb0 92bb c2f7 ccbc f656 45bd
000003d0: a868 cfbd a5fc dcbd fa39 6ebe 2155 8f3e
000003e0: 24c1 01be 2a51 9abd 5f5d 02be 69b3 ecbb
000003f0: 3a37 9dbd c875 52bd 34fa 943d 6918 103f
0.035589244 -0.00070797873 -0.06410161 -0.083618894 -0.09531436 -0.055553485 -0.023269888 -0.01431671
0.1154276 -0.16112933 -0.04441672 0.01755252 0.1977801 0.5652563 -0.15070617 0.02055088
0.024685265 -0.080341175 0.14295293 -0.032944724 0.07721246 -0.3821514 0.34967223 -0.21282777
-0.040207833 -0.050599672 0.085630216 0.021277191 -0.009130103 0.002012487 -0.13356675 0.08041567
-0.23115315 0.15159416 0.087939516 0.006450667 0.10939363 0.010266128 -0.031184817 -0.62067944
0.47780094 -0.18407331 0.028540302 -0.03219979 0.08324642 -0.02433142 -0.03141761 0.0030530675
-0.28013924 0.3669547 -0.3145113 0.050674163 0.023921708 0.021761397 -0.005957148 -0.058682214
-0.012230893 -0.32702625 -0.09903904 -0.5062575 -0.031901818 0.03696737 0.040282328 0.104030095
0.013962866 0.17140943 -0.1478695 0.0035442584 0.22876936 -0.11170292 0.08086264 -0.09509089
0.06842223 -0.03577548 0.12079112 0.090472296 -0.47154352 0.1839243 0.06155021 -0.06499553
0.10417908 0.023288514 -0.10708433 0.048290376 -0.042777862 -0.16366209 -0.031566598 0.022990538
0.025970276 -0.039351165 0.013962866 -0.062108908 -0.07192342 0.18019964 -0.011597698 -0.00025272486
0.021854514 0.040356822 0.08995083 -0.10335965 -0.12999105 -0.040207833 0.12522349 -0.38453516
0.2573444 0.14816748 0.087418064 0.1399732 0.2202771 0.03175283 0.088386476 -0.05845873
0.09181318 0.006036297 0.018725788 0.09576132 -0.04553412 0.04747095 -0.05343042 0.05790003
-0.14697558 -0.2421782 -0.2034416 -0.12019518 -0.012761659 0.080862634 -0.05711785 -0.09077026
-0.09136621 -0.32702622 -0.23472884 -0.104104586 0.3228546 -0.12909713 0.36069724 -0.023344383
-0.03439735 -0.09196216 0.5992253 0.2981228 0.5414184 0.07616954 -0.041846693 0.13788737
-0.018148467 -0.005910589 -0.028577548 -0.021631034 0.19941895 0.018818906 -0.21685041 -0.06210891
-0.45306915 -0.09687872 0.013581086 -0.06946513 0.23651668 0.35235402 0.15204112 0.033093713
0.018520933 0.16142729 0.007863714 -0.09069577 -0.051754322 -0.058384236 0.01038718 -0.07333879
-0.07244487 0.040245086 0.12071663 -0.0699121 0.0949419 0.077733904 0.40867105 0.49210367
0.100454405 0.04788066 0.0074702958 0.07736144 0.060246576 -0.024405913 -0.056633644 0.12537247
-0.16783373 0.28352207 -0.08965286 -0.035551995 0.08414035 0.09375001 -0.022394592 0.06559148
-0.1039556 0.018669918 -0.110362045 0.1897348 -0.020792982 0.019899061 0.061512962 0.11274582
-0.030905467 0.15040226 0.26862338 0.5414163 -0.05573972 0.06328218 -0.037339836 0.02582129
0.06976312 0.01855818 0.3064333 -0.15531884 0.17021751 -0.02857755 -0.17140943 -0.1432509
0.15934148 0.1431019 0.17513408 -0.12272795 -0.08890792 -0.0835444 0.17736888 0.003025132
0.008422416 0.16604589 0.026938694 -0.020606749 -0.025504693 0.052424762 0.3416269 0.017664257
-0.07289184 -0.013227242 -0.0016731927 0.056596395 0.011001751 0.08004321 0.16053337 -0.07721245
0.07996871 -0.00447659 -0.025020484 -0.048178636 -0.101273835 -0.107903756 -0.23264304 0.27994636
-0.12671334 -0.07535012 -0.12730931 -0.007223536 -0.07676549 -0.051381856 0.07274285 0.56287247
