pretrained/small.onnx (onnx, 543226 bytes, 203 tensors)

encoder.level2_0.c1.conv.weight f4 [6, 16, 3, 3]
00000000: 7102 88bd 0d68 3dbe 74d3 9dbe fad4 ca3e
00000010: ab9e 883e 5048 15bd d11e cd3d c899 783e
00000020: 0490 58bc 9b77 083e 79ec 7fbd 44ce 04be
00000030: e9dc 343e 02d1 553e b0db 103e 4cb8 fcbd
00000040: 5561 773e 79fe 923e 5cb0 923e b176 6d3e
00000050: 8c08 bcbd 54a2 f43d a3c6 233e ced6 80bc
00000060: 9723 99be 0ba9 babd 05a2 eb3d 7bab 02be
00000070: 611c 85bd 9bee be3d 131c fcbd 803b 1bbe
00000080: cec4 ed3d 60f8 debd 830c b1bd 2aec 763e
00000090: e39f acbd 26d3 14be 94f2 b3bc 53f5 84be
000000a0: 8cb5 abbe eef5 96be 0fc2 9c3d d454 86be
000000b0: cbd5 8bbe 67d0 43be c6c8 62bd d2b9 a93d
000000c0: bf02 913d 2a63 ad3d 0e03 1abd 4cdc 223e
000000d0: 4c53 d93d 6fba 3bbd 6081 28bd 3b37 9dbe
000000e0: 78d1 85be 91bc fabd 7bbd 15bf 3913 f7be
000000f0: 9bdc ab3d 9a53 e2bd 47c3 40be 58e8 02bc
00000100: 36b9 17be a915 3fbe 7f29 88be c3f7 ccbe
00000110: b83c 3fbe ec9b 37be c35c 70be b9c5 08be
00000120: eee3 833e 0df1 863e 825f 413e 7aab 823e
00000130: d87f 7b3e d8d2 8b3d 249d dbbc 718b d13c
00000140: b77d bcbd 542b be3c c038 4abd 1281 1f3d
00000150: 26d3 143e d071 5d3e bc0d 553e cae1 c4bd
00000160: c910 2f3c defd 803d 7479 b93b 59bb d63d
00000170: 8bf6 283e 974c 133e eee3 033f 990b 163f
00000180: 0012 53be 6f31 5d3b c6b6 4f3e 3129 7f3e
00000190: d19c 9a3e 5e6f 953e 7df3 4e3e a23d 5a3e
000001a0: 5024 6f3e 0e27 c03d 0e15 2d3e c8fe 9b3c
000001b0: a3cb a5be 9145 44be 515a a83c 965e 26be
000001c0: 6d0d 4cbd 44f2 2abd 4eee 353d c775 d2bd
000001d0: c42d 06be 2c22 b03d acc2 2ebd 5820 7abd
000001e0: 7e8e ab3c 4628 e43c b56b 293d b0db 103e
000001f0: 5e5d 823d 7b22 b9bd ab27 d2bd e033 babd
00000200: 526c 3bbd 71f0 74be b82a acbe 0c56 2abe
00000210: 5148 15bd 7f17 75be 1dc5 76be cbf3 d73c
00000220: 2892 173e d7ae 653d 7f29 883d 238b 483e
00000230: b064 da3d a107 21bd a50e 703d 11d0 5d3c
00000240: b5f4 72be e8a6 7bbd c751 2c3e f6df 0e3e
00000250: a97a e23e 15ff a43e 6b3c b6bd 33d6 eebc
00000260: c2d3 26be 9d24 78bc eaca 56bb a844 a93c
00000270: acd4 413e 963a 003f 9c65 753e 97f9 823e
00000280: 974c 933e ff64 63be d195 833e e5e7 783d
00000290: 18ac 94bd 0089 89be 388a 2dbe 8bf6 283d
000002a0: 1efb afbe 688f c6bc 115d f93d 120a 69be
000002b0: 1452 35bd d454 06be 0d03 9a3c 265c debd
000002c0: e71d b2bd 13b7 d8bc ba84 0bbe db3d babd
000002d0: e4c3 d23c 7afe 12be 6f43 05bd c53f 99be
000002e0: d21e 4dbe 96b1 b6bd 43aa 5ebe 4ca6 693d
000002f0: 9357 573e 2a6e 993a 9133 313d 85b9 203d
00000300: a2c6 a3bd dd92 0d3a 9245 c43d db50 11be
00000310: 92bc fabc e7b8 8e3d d230 60bd d05f 4abe
00000320: 255c debd 484c 8abe 54b4 87bd fbd4 4a3e
00000330: a620 033d e941 583e 6f55 183e 6c06 77bc
00000340: 6b60 5cbd cc7c 21bd a2ce c8bc 7ea0 3e3d
00000350: f915 483d e70b 9f3d 7b22 b93d a856 3c3d
00000360: 2267 223e ea77 91bd a597 39be 514c fb3b
00000370: d21e 4dbe d4cb 86be 10c2 9cbd e33a 09bd
00000380: 2b10 1dbe 6f43 853e ec9b 373d 71f0 74bd
00000390: 0224 e63d 97d5 dcbd 783f 90be 1859 04be
000003a0: 1f96 8cbe f2ec 88be 18f3 a03e 6aa1 d93e
000003b0: affa dc3e 6081 283f 963a 003e 9145 44be
000003c0: 5422 9b3e be79 c7bd d0fa 26be 1bb3 633e
000003d0: 4f9b 253e bf8b da3d 3c5b c3bd 0b44 97bd
000003e0: a461 80be 271b 61bd 20ad 26be 49e7 66be
000003f0: 6264 51be bf79 47be a190 6abd 2dbd 8cbe
-0.06641091 -0.18496723 -0.30825388 0.39615613 0.26683554 -0.036445916 0.100156434 0.24277413
-0.01321793 0.13326876 -0.062481377 -0.12969309 0.17662396 0.20880511 0.14146304 -0.12339839
0.24158223 0.28709772 0.28650177 0.23189808 -0.09181318 0.11945024 0.15993743 -0.015727427
-0.29909965 -0.09114274 0.11505512 -0.12760727 -0.064995535 0.09322854 -0.12310042 -0.15159416
0.11609803 -0.108872175 -0.086449645 0.24113527 -0.084289335 -0.14533672 -0.021966256 -0.25968418
-0.33536947 -0.29484504 0.07654201 -0.26236594 -0.2731155 -0.19122468 -0.055367254 0.082873955
0.07080602 0.0846618 -0.03760057 0.15904349 0.10611591 -0.045832094 -0.041139007 -0.307062
-0.26136374 -0.122429974 -0.5849225 -0.48256853 0.083916865 -0.11051102 -0.18824492 -0.007989965
-0.14816746 -0.18660606 -0.2659416 -0.40032777 -0.18675506 -0.17930573 -0.23472886 -0.13356675
0.25759834 0.26355782 0.1888409 0.2552145 0.24560487 0.06827325 -0.026808329 0.025579186
-0.09203666 0.02321402 -0.049370527 0.03894145 0.14533672 0.21625447 0.2080602 -0.09613378
0.010685154 0.06298421 0.0056602303 0.104849525 0.16500299 0.14384685 0.5151967 0.58611447
-0.20612335 0.0033751389 0.20284566 0.24918057 0.30197766 0.2918653 0.20210071 0.21312574
0.23353696 0.09382449 0.16902563 0.019042388 -0.32381925 -0.19167162 0.020550879 -0.16247019
-0.04981749 -0.04173495 0.04441672 -0.102763705 -0.13103396 0.08600268 -0.042666122 -0.061066
0.020941969 0.027851235 0.041362483 0.14146304 0.06365465 -0.0903978 -0.10261472 -0.090919256
-0.0457576 -0.23919846 -0.33626342 -0.16634387 -0.03644592 -0.23934744 -0.2409863 0.026361367
0.14801848 0.056074943 0.0664854 0.19584326 0.10663736 -0.039313916 0.058607716 0.013538376
-0.23726161 -0.06143847 0.1682807 0.13952622 0.44234207 0.32225862 -0.088982426 -0.029154873
-0.16291717 -0.015145448 -0.0032774755 0.02066262 0.18928784 0.50089395 0.23964542 0.25581047
0.2876937 -0.22206496 0.25700238 0.060768027 -0.07259387 -0.26862335 -0.16947258 0.041250747
-0.34371275 -0.024238303 0.12175954 -0.22757748 -0.04426773 -0.13118297 0.018800283 -0.1085742
-0.0869711 -0.026454484 -0.1362485 -0.09093829 0.025728174 -0.14354888 -0.032535013 -0.29931465
-0.20031288 -0.089205906 -0.21744637 0.05704336 0.210295 0.0011705805 0.04326207 0.039239425
-0.079968706 0.00054006075 0.09583582 -0.14191 -0.030607495 0.06968861 -0.05473406 -0.19763112
-0.10857419 -0.27011323 -0.06626192 0.19807808 0.032013558 0.21118893 0.1487634 -0.015077215
-0.05380289 -0.039425656 -0.024512593 0.046539776 0.04884908 0.07765942 0.0903978 0.04598108
0.15859655 -0.0710295 -0.18124254 0.0076690097 -0.20031288 -0.26327384 -0.07654202 -0.033503424
-0.15338199 0.2602801 0.044826433 -0.059799615 0.11237337 -0.107829265 -0.28173423 -0.12924612
-0.27458283 -0.26743275 0.31435466 0.42505962 0.43160006 0.6582241 0.12522349 -0.19167162
0.30299628 -0.09740017 -0.16306615 0.22236292 0.16172527 0.10671186 -0.09538886 -0.07386025
-0.25074494 -0.054957535 -0.1627698 -0.22549166 -0.20448449 -0.19480036 -0.057266835 -0.2748808

encoder.level2_0.d1.conv.weight f4 [8, 6, 3, 3]
00000000: d21e cdbd 3878 1a3e c7fe 1b3e a6bb df3c
00000010: 7a87 dcbd ec2e c7bd 0e39 d33c d05f cabd
00000020: 2e6a fc3c f385 2f3e b56b a93e b064 5a3e
00000030: a1a2 7dbe 9e43 17bf 3ce4 8cbe 57ea c03d
00000040: f827 db3d 47c3 c03d 9133 b1bc 2a3f 87bd
00000050: 116f 8cbd d613 89bd 48b1 2dbd e8a6 7b3e
00000060: 9416 5a3b 2880 84bc 31b2 c8bb 1281 1f3e
00000070: 052b b5bd 30f3 453c ec24 01be deb1 bebe
00000080: 8b6d 5fbb ec24 013e 5acd 693e 2538 b83d
00000090: dd0f 943c bf79 c7bc 6140 ab3d c7ec 083d
000000a0: 68f4 69be 062b 35bd b94e 523d e17b 063e
000000b0: 6e43 05be 543d 51be ff76 76be 815f 41be
000000c0: c2c1 933e ea8d 0d3f b599 f83d 0e9e f6bd
000000d0: 197d 2abd e63f cf3b b706 863d ffc9 063c
000000e0: 37dd 3d3e ac4b f83d 570e 67be 5b03 23bd
000000f0: b4ac a63c cfe8 133e 98f9 02be 9198 d43d
00000100: 8395 fabd e169 733d 5acd 693d dc74 b7be
00000110: 1847 f1bd 9516 5a3d 3ce4 0c3e d195 03bd
00000120: 2d34 c3bc 2d22 303d 77c8 d9bd 32b2 c83e
00000130: ade6 d43e 4b0b 0dbe 9624 64be 4504 3ebe
00000140: 1e60 533c 399c c03c ddeb 6dbd 105d f93d
00000150: 9121 9e3e d9a0 a2be fa39 eebd 1d3c ad3d
00000160: 6d84 823e c1d3 26bd 8eeb 64bd 08ea b73d
00000170: 3b49 b03d 4728 643e 0e03 1a3e c750 aa3d
00000180: 4cca 0fbe e7a6 fbbe 3bae 6339 2d2c 5dbd
00000190: 1464 c83d a915 bf3d f485 2fbe 3866 07bf
000001a0: 1859 043e 1847 f13d c4a4 3c3d c946 e8bc
000001b0: d7ae e5bc ce29 113b b288 80bd 1cb3 633d
000001c0: 14db febe 70f0 f4be 0f39 533e 307c 0f3f
000001d0: ce9b cb3e bb96 1e3d 1281 1fbe d86d e83c
000001e0: 1de9 1cbb 4286 383e 33c4 dbbd 83a7 8dbd
000001f0: f385 afbd 57ea c0bb 601c 853d 8c91 05bd
00000200: 8c3e 753d b718 193d 54c6 1a3c aa03 acbd
00000210: 9f48 1ebd a361 803d fda5 e0bc e670 423d
00000220: 54c6 1abd 8e62 9bbc b706 06be 8bf6 283e
00000230: e38d 993e 4343 5d3e b7a1 62bd 44e0 17be
00000240: 938d 903d 7bab 823c 3017 ecbd 975e 263d
00000250: 3117 6c3d ec24 013e 5048 95bd c1c1 13be
00000260: c7fe 9bbd 44ce 84bd caab 0bbe 0e39 d33c
00000270: 75f7 43bc d478 ac3d 1c2a 1abe c138 cabc
00000280: 2aec 763d e841 583e 2792 97bc cc17 febc
00000290: 81d6 773d 063d 48bc c6ec 08be 57fc 533e
000002a0: ffdb 99bc ae81 b13d 54b4 87bd a685 263c
000002b0: 8713 00bd 77b6 463d 8542 eabd dceb ed3d
000002c0: 73c1 8a3c 0236 f9bd a3c6 23bd 0e9e 763d
000002d0: a33d dabc e39f acbd e7b8 8e3d 0507 8fbd
000002e0: d613 09bf 106f 0c3f 479f 1abe 96c3 c9bd
000002f0: 052b b53e c2eb 3d3b dd74 37bd 5af1 0f3d
00000300: 40fd 6ebd 6759 0d3e 0112 d3bd 9e24 f8bb
00000310: b606 063e 45f2 aabc c5a4 bcbc 24c1 5d3a
00000320: 06a2 6bbc 307c 8fbd 9676 d7be d91a d83e
00000330: ade6 d43c a660 c8be 4186 b83e b9c5 08bd
00000340: 4186 38bd 4b2f b33c 9357 d7bd cabd 1ebd
00000350: d00c ba3e a4d8 b6bd 4286 38bd fd2e 2a3d
00000360: 4a1d 20bd 72af f7bd 63ed 1abd cd3b a4bd
00000370: 1ee9 9cba d82d 463d f2c6 ac3d 77b6 463e
00000380: aab0 9bbc b040 b43d c8fe 1b3e d05f ca3d
00000390: 953a 00bd 3fc7 b53d 79fe 123e c014 24be
000003a0: 3e7d 8abe 79fe 12be 8f2a 9e3e 9516 da3e
000003b0: ede3 833e 9121 1ebc c002 113e 22f0 eb3d
000003c0: 5773 8abe bf1f 1fbf b72a acbe 527e ce3d
000003d0: 8ae4 95bd 9357 57bd cbcf 313d 2fe1 32bd
000003e0: 27e5 27bd 6bc5 7fbd 7ea0 be3d 2f7c 8f3d
000003f0: 4bb7 03be a32b c7be 4b41 46be 5f0a f23c
-0.10015644 0.15084922 0.15233909 0.027311157 -0.107680276 -0.097257465 0.025784042 -0.09881556
0.03081235 0.17140941 0.33089986 0.21327472 -0.24769069 -0.5908755 -0.2751788 0.09419697
0.10700983 0.09412246 -0.021631034 -0.066038445 -0.06857122 -0.066932365 -0.042405397 0.24575388
0.0033277618 -0.01617439 -0.0061247577 0.1557658 -0.08846096 0.012081906 -0.12611741 -0.37245077
-0.0034092392 0.12611741 0.22832242 0.08995084 0.01807397 -0.024350045 0.08361889 0.033428933
-0.2284714 -0.044230483 0.051344607 0.13133194 -0.13014004 -0.20433551 -0.24068831 -0.18884088
0.28858763 0.5529467 0.12138692 -0.12041865 -0.04162321 0.006324756 0.065442495 0.008226871
0.18541418 0.12123808 -0.22564064 -0.039798122 0.020346023 0.14444278 -0.12790525 0.10380662
-0.12235548 0.059427146 0.057080604 -0.35831344 -0.11781138 0.053244192 0.1375894 -0.032125298
-0.02382859 0.043001343 -0.10633939 0.39198452 0.41582242 -0.13773839 -0.22279581 -0.18556316
0.012901334 0.023511993 -0.058086265 0.121759534 0.30884984 -0.31763342 -0.11632152 0.08458731
0.25491658 -0.040729288 -0.055888705 0.08980185 0.086077176 0.2228099 0.15040228 0.08316188
-0.14042014 -0.49150774 0.00021713313 -0.053997207 0.097847134 0.09330303 -0.17140943 -0.5289035
0.12924612 0.11781138 0.04605557 -0.028354065 -0.028037472 0.0022150162 -0.062760726 0.055590734
-0.49776518 -0.4783969 0.20627235 0.5604887 0.39767307 0.038717967 -0.1557658 0.02837269
-0.0023942657 0.18019965 -0.107307814 -0.06916716 -0.08570471 -0.0058873105 0.06499553 -0.032609507
0.059874102 0.037377086 0.009446699 -0.08399136 -0.038643476 0.06268623 -0.0274229 0.04747095
-0.037786797 -0.018967893 -0.13088499 0.16500299 0.29991063 0.2160769 -0.055330005 -0.14831644
0.07058253 0.015950909 -0.1152786 0.04061755 0.057639305 0.12611741 -0.07289183 -0.1442938
-0.07616954 -0.064846545 -0.13639751 0.025784042 -0.011960854 0.08421484 -0.15055126 -0.024685265
0.060283817 0.21118891 -0.018502308 -0.031017207 0.0605073 -0.01222158 -0.13371572 0.20701729
-0.01878166 0.086673126 -0.06626192 0.0101637 -0.031268623 0.048513856 -0.11438469 0.11617252
0.016937947 -0.12168504 -0.039984357 0.060209326 -0.026640719 -0.084289335 0.06968861 -0.06983761
-0.5354589 0.5485697 -0.15099822 -0.09851758 0.35384384 0.0028979634 -0.044789184 0.03514228
-0.058346987 0.13803636 -0.10306168 -0.0075727245 0.13088498 -0.020867476 -0.023027787 0.0008459261
-0.014381891 -0.07006109 -0.4208266 0.42207983 0.025988901 -0.39136237 0.36039928 -0.033391688
-0.04504991 0.021873137 -0.1051475 -0.038755216 0.363379 -0.0892804 -0.045049913 0.041548718
-0.039090432 -0.120940104 -0.037824046 -0.080192186 -0.001197133 0.048383564 0.08436383 0.19405542
-0.019005138 0.08801401 0.1523391 0.09881556 -0.03130587 0.08875894 0.14354886 -0.1602354
-0.27048677 -0.14354886 0.30891845 0.42595354 0.2575983 -0.009651558 0.14161205 0.11520411
-0.27041122 -0.62157816 -0.3362634 0.100826874 -0.07318981 -0.05257375 0.043411057 -0.043671783
-0.04099002 -0.06244413 0.09307955 0.07006108 -0.1286289 -0.3890048 -0.19360845 0.029545961

encoder.level2_0.d2.conv.weight f4 [6, 6, 3, 3]
00000000: c6c8 e2bc 6cfb 383d 5691 afbb 66ac 9d3c
00000010: ffdb 99bb 4221 153d 12a5 453c 1588 6e3d
00000020: 3df6 1fbd 746e 7abd 570e e7bd c2d3 26bd
00000030: ab4b 783e 2202 7fbe 30f3 c53d 97d5 5c3c
00000040: 264a cbbd 0a32 043e 7ce1 bb3d 47c3 403d
00000050: 6659 0d3d 0224 66bd 28b6 bd3d 420f 02bd
00000060: 2dbd 8c3c 0d8c e33d cfd6 00be 473a 77bd
00000070: 73c1 8abd 05a2 6bbd 0d7a 50be 8c91 053f
00000080: 532b 3e3e 169a 013d b9d7 1bbe 47c3 403e
00000090: e4b1 3fbd 8cd2 1f3e 64ff 2dbd 1d4e c03e
000000a0: b2ed 233e 8283 e7bd 5897 b0bd fdb7 f33c
000000b0: 02ad 2fbe f703 35bd f261 893d 3cf6 9fbd
000000c0: 0c68 bd3d 2f05 593e 5e6f 953d 0cf1 06be
000000d0: 4b0b 0d3e 5419 abbd 8f86 c1bc 1a18 07bd
000000e0: 0d68 bd3c 29b6 bd3d 948d 103f b447 033e
000000f0: 0000 c03b 0e03 9abb a8df 05bd 1ffb 2f3d
00000100: 2167 a23c 1576 db3c 18be a7be 18ac 94be
00000110: 5af1 0fbd a553 c43a 25d3 943d a97a 623c
00000120: c226 363b 7692 20be b0db 10bd 3d91 7c3d
00000130: ffed ac3e 9ead c1bc 9f6c c43c 2c75 40bd
00000140: b706 86bd cb58 7b3d 0b56 2abd f090 f33d
00000150: c9ab 8bbd 2f15 41bf 7326 2e3e da08 c53d
00000160: 761b 6abc c380 163d b5d0 4c3c 3a37 9dbd
00000170: 1fa8 9f3c 6488 f7bd 5acd e93e f497 423d
00000180: 467b f43c 8554 7d3d 43c0 86bb 9a2f bcbc
00000190: fb81 3abd 324d 253d 537e 4ebe 17be 27bd
000001a0: 10e6 423e a573 93bd 868a b6bc 7afd 23bb
000001b0: 0a32 843d 3a25 8a3d 254a cb3c 73d3 9dbe
000001c0: dd0f 14bd df33 ba3d de98 5dbd 1b18 07bd
000001d0: 1558 813d 4da2 ee3b b70b e639 20cc c53d
000001e0: 2e34 c33e 9fbf 54bf d0fa 26be 8171 d4bd
000001f0: 9b65 753d dc62 243d e8ca a13d 8554 fdbd
00000200: 803b 9bbd bbfb 41bd 1b18 87bd c26e 033e
00000210: 20a8 9fbd f4a9 d53d 6806 fd3d 5148 153d
00000220: d1fa a63d 7179 3e3d 046c 323e 1d3c ad3d
00000230: fa5d 94bd d366 99bc a632 96bd 1f74 b03a
00000240: 3d91 fcbc d05f ca3d b0c9 7d3d 0fb0 093e
00000250: c2c1 13be 4233 a8be fc93 4d3d f02b d03d
00000260: 057e c5bd cd3b 243d af93 c4bc a473 93bc
00000270: e4c3 52be e4d5 e53d c26e 033e 7975 c9bd
00000280: 7e6a 053c 6264 d13d 7102 88bc b56b 293d
00000290: 0e39 533d f94b 013d 9f48 1ebf 0fd4 123f
000002a0: e169 733d 8b91 85bc 79fe 92bc 5cb0 92bc
000002b0: c875 52bd 981d 29bd 2d82 02bc 2155 8fbd
000002c0: 276e f13c cb6a 8ebb 4445 3b3d b2ed a3bc
000002d0: 5307 183c e316 633d e61d 323d 63ff 2dbd
000002e0: d513 09be 8778 233e ff52 503d 5773 0abd
000002f0: 1cd7 89bc 6264 d13c 63ed 9a3b 3a25 8a3d
00000300: 0873 81bd 1564 c83e b6f4 72be f740 4f3b
00000310: 0f45 4d3c 4557 ce3c 4e65 6cbc 31a0 b5bc
00000320: 22de 58bc bc96 9ebc 494c 8abc 01ad afbc
00000330: 0b56 2abc 1ee9 1c3d f644 b23b b064 5abd
00000340: 50b8 59bb 3879 9f3a d8d2 0b3e d8f6 b1be
00000350: 1e60 533e fe4f ae39 9404 c73d b718 99bd
00000360: 4f9b a53d 4233 a83e a361 803e 4074 a53d
00000370: 50ad b8be 6511 41bd f0b5 8a3d 7214 9b3b
00000380: 398a 2dbd c25c 70bc 0544 82be 6e31 f23b
00000390: 18d0 babd acd4 c13e d0fa 26be d849 c23d
000003a0: 16ff 243d 29d2 22bb ec24 013e ecad 4a3e
000003b0: d183 703d 7851 a3bc 8654 7d3d a0e3 fa3c
000003c0: 81c4 643c a868 4fbe c41b f3bd 79da 6c3c
000003d0: 762d 7dbe 4f89 92bd 1440 a23d 8666 903e
000003e0: 0a97 a73c 81d6 f73c 479f 9a3d 8467 e7bb
000003f0: 3005 d9bc 3583 5e3d a34f 6d3d f768 58bd
-0.027683627 0.04516165 -0.0053579016 0.019247245 -0.004695415 0.03640867 0.012063282 0.058235247
-0.03905319 -0.061140493 -0.11282032 -0.04072929 0.24247615 -0.24903157 0.09665525 0.013478658
-0.09926252 0.12909713 0.09173867 0.04706123 0.034509085 -0.056186683 0.09263259 -0.031752832
0.01718005 0.11110697 -0.12581943 -0.060358312 -0.06775179 -0.05752756 -0.20359059 0.5217521
0.18571214 0.03164109 -0.1521901 0.18824492 -0.04680051 0.15607661 -0.042479888 0.37559596
0.16008642 -0.1130438 -0.086226165 0.029750818 -0.17155841 -0.044193234 0.06708135 -0.07810637
0.09248361 0.21193384 0.07296632 -0.1317789 0.13773839 -0.0835444 -0.023623733 -0.03298197
0.023120904 0.0926326 0.5646603 0.12820321 0.005859375 -0.004700071 -0.032684 0.042964097
0.019824566 0.026789704 -0.32762218 -0.29037547 -0.03514228 0.0014978541 0.07266835 0.01382319
0.0027794098 -0.1568087 -0.03536576 0.061661948 0.33775327 -0.023642357 0.023977576 -0.046986744
-0.065442495 0.061363976 -0.041585963 0.11892879 -0.06819875 -0.7542295 0.17006855 0.09620829
-0.014288774 0.03674389 0.0125009315 -0.07676549 0.019489346 -0.12086561 0.45664483 0.047508195
0.029843938 0.061848182 -0.004112275 -0.022971917 -0.045534115 0.040356822 -0.20165376 -0.04095277
0.19033074 -0.07199792 -0.02228285 -0.002502291 0.06454857 0.06745382 0.024815628 -0.30825385
-0.03614794 0.09091925 -0.054100864 -0.032981973 0.063156284 0.0072825314 0.00043877747 0.096580744
0.38125747 -0.8310489 -0.16306615 -0.10373212 0.05991135 0.040133342 0.079000294 -0.123696364
-0.07579708 -0.04735921 -0.06596395 0.1283522 -0.07795739 0.104328066 0.123547375 0.03644592
0.08153308 0.046502534 0.17424017 0.08458731 -0.07244487 -0.018725788 -0.07333879 0.0013462341
-0.030830974 0.09881556 0.061959922 0.13446067 -0.14429381 -0.32851607 0.050189957 0.101646304
-0.09643177 0.040096093 -0.023996202 -0.017999478 -0.20582539 0.11222437 0.1283522 -0.09836859
0.0081430655 0.102242246 -0.016602727 0.041362483 0.051568083 0.031566594 -0.6182956 0.57354826
0.059427146 -0.016304752 -0.017943608 -0.01790636 -0.051381856 -0.04128799 -0.007965607 -0.06998659
0.02947147 -0.004346227 0.045720354 -0.020010803 0.00927909 0.05544175 0.043485545 -0.042479884
-0.13386472 0.15963946 0.0508604 -0.033801403 -0.016826205 0.025560562 0.0047280057 0.06745382
-0.063207686 0.39138857 -0.23726162 0.0031624415 0.012528672 0.025188098 -0.01442845 -0.022171112
-0.013236554 -0.019358985 -0.016882079 -0.0214448 -0.010396491 0.038308255 0.0054403497 -0.05331868
-0.003322143 0.0012166863 0.1365465 -0.3475864 0.20642135 0.00033247465 0.0971767 -0.07475417
0.080862634 0.32851607 0.2507449 0.080788136 -0.36069727 -0.04713573 0.06772983 0.004732662
-0.042368148 -0.014670553 -0.2544252 0.0073911464 -0.09121722 0.37857568 -0.16306615 0.09486741
0.04028233 -0.0024844503 0.12611741 0.19792908 0.05871946 -0.019936308 0.061848186 0.030626118
0.013962866 -0.20254767 -0.1187053 0.014456385 -0.24724373 -0.07155096 0.07922378 0.2820322
0.020457763 0.03025365 0.07549911 -0.0070619006 -0.026491731 0.054324348 0.057937276 -0.052834477

encoder.level2_0.d4.conv.weight f4 [6, 6, 3, 3]
00000000: 6a3c b63c 3c6d 563d 80c4 e43d f78c 7e3e
00000010: 85b9 a0be af1c 8e3e 45f2 aabc f6f1 213c
00000020: c6ec 88bd c663 3f3d d85b 553d 2526 253c
00000030: d1a7 96be 97df b23e a05a b1bd 4062 123c
00000040: aa7a e2bc b84e 523d 5832 0d3c f3ea d2bc
00000050: 495e 1dbd 9e48 1e3e 0507 0fbf b2ff b63e
00000060: fb6f a73c 53a2 743d 9b65 75bd 324d a53d
00000070: c038 4a3d 1552 b53d 67e2 56be e328 f6bd
00000080: e033 babd 132e 0f3d 63db 873d c480 963d
00000090: 9cdc 2bbd 01ad afbd 9d13 fa3b b606 863d
000000a0: fd93 cd3d f94b 01be d242 f3bd 5f81 a8bd
000000b0: 846a 1cbe 40d9 c8bd 0224 e6bc 8ae4 95bd
000000c0: d183 f03d ced6 803e da91 8ebe e8a6 7bbd
000000d0: 2538 b8bd aa0c 953b 12f8 d5bc 4445 3bbd
000000e0: 7055 18bc 1859 84be 24c1 81bd 13a5 45be
000000f0: a361 00bc b211 cabc 2e46 563d 30f3 453d
00000100: 2fcf 1f3d 4c41 463d b288 80bd ddd6 c13e
00000110: efa2 863d 2167 a23d 10c2 1c3e 0ba9 babc
00000120: f161 093d 0ccd e0bc a1f5 8dbc ab39 e53b
00000130: c751 acbc 745c 67bd 4569 e1bc e045 cd3c
00000140: 4198 cb3b b559 963c ee7e e03b 197d aa3c
00000150: b8a1 623e 6be9 25bf 38ef 503e a9df 853d
00000160: f485 af3d d9f6 b13c fe2e aabd a07e d7bd
00000170: d195 03bd 03e3 68be 2414 123f 56d8 adbd
00000180: f520 8cbc a6bb 5fbe 0519 22bb 4982 c33c
00000190: 51bf cbbc 4ddc 223d a8f1 98bd 7f29 88be
000001a0: 6364 513d 36b9 17bd a06c c4bc 7a99 6f3c
000001b0: 7226 ae3c bca8 b13d 8db5 2bbd 44e0 17be
000001c0: 0a32 04bd cd29 913e 62b7 613c 0519 223e
000001d0: 72af 773d d295 83bd 6364 51be 2c10 1dbd
000001e0: 2ada e33e ad81 b13d defd 00be 542b 3ebd
000001f0: eed1 f0bd 878a 36be b3ac a63c 18be 273e
00000200: 9021 9ebb c5a4 bcbc 7a1c 1f3e 473a f7bc
00000210: 0e8c 63bd 18d0 ba3d 40d9 48bc 0189 89bd
00000220: 047e 45be 1859 84bd 7963 363e aa8c f53e
00000230: ad6f 1ebe 62b7 e13d f2ed b63d 9c77 883d
00000240: 6647 fabd c910 af3e f7f1 a13c 6d1f 5fbe
00000250: 8678 23be 10e6 c2bd 37dd bdbd 75e5 303e
00000260: 0a44 97bc 5785 1d3d 7e17 75bd 13a5 45bd
00000270: 93e0 a0be 07ea 373e 37cb 2abe de21 27be
00000280: 975e a6bd 67d0 43be de0f 143c 649a 8a3c
00000290: bff3 8cbd 66be 30be 105d f93d 9770 393d
000002a0: 5036 023c 196b 173d 45f2 2abd 9dad c1bd
000002b0: d69c d2bc 2ff3 c5bd c2d3 263d 6c60 dc3e
000002c0: 8295 7abe 43ce 84bd 6759 0d3e c53f 99bc
000002d0: 2c87 533d 6d84 023d c6b6 cf3c 16ed 913d
000002e0: e45c 21be 3c7f e9bd fe40 3d3b 67d0 433d
000002f0: 22f0 6b3d 50ad 383d 2414 923d a461 803d
00000300: e8a6 fb3d 6fcc 4ebe b39a 133d d513 89bc
00000310: a915 3fbd 045a 9f3c 7d6a 053e b67d 3c3e
00000320: 0997 273e 54db 2ebe 8dc7 be3e 7dcf 28be
00000330: 40d9 c8bc c1af 00be dcd9 dabd 1f84 f9bc
00000340: 77c8 d93d 0761 eebc 59bb 563e 0248 8cbf
00000350: a0e3 fa3e 3974 143a 868a 363e 96c3 c9bd
00000360: 4cca 0f3e 4e89 923e 1181 9f3e 5307 18bf
00000370: 98f9 82be 8ed9 d1be fec9 063e 4a0b 0d3e
00000380: a3d8 b63d 6264 51bc 4ddc a2bd 2096 0cbe
00000390: 773f 90bd 60f8 5e3e 7d58 723d 8e50 883d
000003a0: b1ff 36bd 282d f4bb 1ae2 cdbd bf55 4fba
000003b0: 6759 8d3c 7592 a03c f090 733e 24af eebc
000003c0: 36b9 97bd 81d6 f7bd e953 6bbd 4e89 923d
000003d0: c7da 75bc e965 fe3d 5036 02be 360b 59be
000003e0: cabd 9ebd c899 783d 4469 e13c c0af 803d
000003f0: 964c 933d 7ccf 283e 351e 3b3d af1c 8ebe
0.022245605 0.052350268 0.11170292 0.24858461 -0.3139154 0.2775626 -0.020867476 0.009884348
-0.06685786 0.04672601 0.052089542 0.010079895 -0.2942491 0.3493621 -0.086598635 0.008934557
-0.027646381 0.051344603 0.00861796 -0.025746798 -0.038419995 0.15457389 -0.55870086 0.35741955
0.020439139 0.059725117 -0.05991135 0.080713645 0.049370527 0.088535465 -0.20984803 -0.12019517
-0.090919256 0.03495605 0.066336416 0.07348779 -0.041958436 -0.0857792 0.0076317326 0.06544249
0.10037992 -0.12626638 -0.11877979 -0.082278006 -0.15275007 -0.09807062 -0.028093342 -0.07318981
0.11743892 0.25163883 -0.2784565 -0.06143847 -0.08995084 0.004548629 -0.026119266 -0.045720354
-0.009297714 -0.25849223 -0.06335667 -0.19301252 -0.007835778 -0.02466664 0.052313022 0.048327625
0.039015945 0.048402116 -0.062760726 0.3785924 0.06574046 0.079298265 0.15308404 -0.022785684
0.03354067 -0.027441524 -0.017329039 0.0069954 -0.021035088 -0.056484655 -0.027516017 0.025057733
0.0062132184 0.018353323 0.0068510687 0.020811604 0.22132003 -0.6480929 0.20403755 0.065368004
0.085704714 0.021724151 -0.08309744 -0.10522199 -0.032125298 -0.22742848 0.5706198 -0.084885284
-0.017105559 -0.21848926 -0.002473415 0.023865836 -0.0248715 0.039760876 -0.07467967 -0.2659416
0.051121127 -0.037041865 -0.023977578 0.014623994 0.021258567 0.08674762 -0.041921187 -0.14831644
-0.032274283 0.28352204 0.013776632 0.15829857 0.060470052 -0.0642506 -0.2044845 -0.0383455
0.44502383 0.08667312 -0.12596843 -0.04642804 -0.11758791 -0.17826281 0.020346021 0.16381109
-0.0048257783 -0.023027787 0.15538207 -0.030179156 -0.05555349 0.09121722 -0.012258828 -0.067155845
-0.19286352 -0.06462306 0.17811383 0.4795888 -0.15472288 0.110213056 0.08932103 0.06663439
-0.122206494 0.34192494 0.019768698 -0.21789332 -0.15963945 -0.09516537 -0.09270709 0.17275031
-0.01846506 0.03845724 -0.059836857 -0.04825313 -0.31421337 0.17960368 -0.16679083 -0.16321513
-0.0812351 -0.19122468 0.009036986 0.016919322 -0.068824284 -0.17260131 0.121759534 0.04527339
0.007947519 0.03696737 -0.041734952 -0.09456942 -0.02570955 -0.09665524 0.04072929 0.43042314
-0.24471095 -0.06484654 0.13803636 -0.018707165 0.05164258 0.031864572 0.025355708 0.07125299
-0.15758091 -0.11401221 0.002887785 0.04780617 0.057602055 0.04508716 0.07132748 0.062686235
0.12287694 -0.20195173 0.036036205 -0.01673309 -0.046651516 0.019452102 0.13028903 0.1840733
0.16366209 -0.17075855 0.3726162 -0.164854 -0.024517655 -0.12567045 -0.10686085 -0.030458508
0.10633939 -0.029099 0.20969905 -1.0959475 0.4900179 0.00056630705 0.1782628 -0.09851758
0.14042014 0.2862038 0.31153157 -0.59386176 -0.2558105 -0.40986294 0.13162991 0.13773838
0.08928039 -0.012780281 -0.07952175 -0.13729143 -0.07043355 0.21774435 0.05916642 0.066559896
-0.04467744 -0.007451672 -0.10052891 -0.00079092005 0.017254544 0.019601086 0.23785758 -0.029136248
-0.07408373 -0.1210146 -0.05745307 0.07155095 -0.015005774 0.124217816 -0.12716031 -0.21195683
-0.07751043 0.060693532 0.027516015 0.06283522 0.07192342 0.16485399 0.045683105 -0.2775626

encoder.level2_0.d8.conv.weight f4 [6, 6, 3, 3]
00000000: 970f 253c 7bed e2ba 33e8 813c b5f4 f2bd
00000010: 1f84 f93e 18d0 3abe bd31 fb3c ba72 78bd
00000020: 4a5e 4f3c 7d93 813c 2314 123d 634c 1ebb
00000030: d578 2c3e 9369 6abf c14a dd3e 7f05 e23c
00000040: 3df6 1f3e 0a97 273d 2b10 1dbd 9516 dabc
00000050: 1676 5bbc 89d2 823e 40d9 48be 9e36 0b3e
00000060: 3229 ffbd e17b 063d ed0f 13ba 6140 2b3d
00000070: 5903 31bd 0b32 043d 612e 983e 20cc c5be
00000080: eb96 b73e 7338 413d 2dbd 0cbd 5bf1 8f3b
00000090: a573 93bc c751 acbd 79da 6cbd 6ce9 a5be
000000a0: ba4c 563f f644 b2be 48c3 c03d e0bc 83be
000000b0: 15ff 24bd cea0 c73c 5c27 49bc 0ba9 3abd
000000c0: 1293 32bd 2ee1 b2bc feb7 f3bc 2ef2 47ba
000000d0: 4728 643c 66be 30bd 179a 013d a119 b4bd
000000e0: 8320 87bc 981d a9be bb72 f83e a8f1 98be
000000f0: c492 293d a361 80bd 1c3c adbc 65ba 0b3b
00000100: 9bca 98bc 3fc7 b5bc b447 033e 7055 18bd
00000110: c6da 753d 116f 0cbd 6476 e4bc 5f6f 15bc
00000120: 92a6 7d3c b8c5 883d 7d7c 983d 0973 01be
00000130: b3ac a63e 2096 8cbe e8a6 94bb fec9 863d
00000140: f74b a2bb 74e5 303d 1452 b53d 992f bc3d
00000150: 735c e73d 3f2c 593d c9bd 1e3e 04e3 e8bc
00000160: 7d6a 053c 2ac8 50bd cd29 113c d6ae e5bc
00000170: 3d08 333d 4333 a83c ac5d 8b3e e4d5 e53d
00000180: 3bd2 f9bc 89d2 82bd a844 a9bc 18d0 3a3d
00000190: 8937 263c 8da3 98bc ba60 e5bd 92bc 7a3f
000001a0: f1de 88ba af93 44bd 5d4b efbd eef5 16bd
000001b0: 65be b0bd 6806 fd3c 74f7 43bd 90aa e7bc
000001c0: 7d58 f23e 0011 88be 612e 98bd 3a25 8abc
000001d0: ec24 81bd adf8 e7bc 878a b6be 0861 eebd
000001e0: cb58 7bbe f815 c83e 6a3c 36be 7102 083e
000001f0: fc93 4dbe f261 093c 9f48 1e3d fd1c 973d
00000200: aa95 243d 68ae 473b c405 76be a119 34bd
00000210: f556 c5bd 276e f13c 58f4 573c 48e7 e6bd
00000220: 12a5 45be 8dc7 bebd fad4 4abd 0e15 2d3f
00000230: bd80 c6bd edbf dd3d bdcc d7bd 1c4e c0bc
00000240: 0348 0c3d b311 d33e e345 223e e29f acbe
00000250: 688f c6bd 18d0 babe 37b9 173d 28a4 2a3e
00000260: a712 ccbd 2892 973d d8e4 1e3d da08 453d
00000270: a7bb df3e f7df 0e3d 0abb cd3e fd40 3d3d
00000280: 4ed5 6b3c a4ea c93c c2d3 a63d 61a5 ce3b
00000290: 62db 073e 3cd2 f9bd 889c c9bd 734a d4be
000002a0: 5bdf 7c3d ba84 8b3d f3fc 653d 6b67 ef3d
000002b0: 0d03 9a3e 99b8 053c 2f7c 8fbe 318e 22bf
000002c0: dd74 b7bd d525 1cbe eff5 963d 20cc 45be
000002d0: f2fc e53d 29a4 2a3e ec24 013e 79fe 123e
000002e0: 04f5 fbbe d8e4 1e3d d3dd 4f3b 6dfb b83e
000002f0: 9870 b9bc 410f 823e cd08 7f3e aad0 893e
00000300: 9aa6 f2bd fae6 ddbe 1452 b5bb 6364 d13c
00000310: 1ee9 1cbc 0c7a d03d 2538 b8bc 363b 72bc
00000320: daa3 a13d eee3 83be 7e6a 85be c763 bfbe
00000330: dfbc 03bd 325f b83d 28b6 3d3e 4ba6 e9bd
00000340: 12a5 c53d 0e15 adbd 4a85 e63e 8171 d4bc
00000350: 3a7d aa3e 30a0 35bd 8dd9 513e cfd6 00be
00000360: 85b9 a03d 3e2c 593e 3c7f e93d 62b7 61bc
00000370: 756e 7abe 292d f4be 9516 5abc f161 893d
00000380: b5be b9bc 31b2 48bd 52f5 04be f939 6ebd
00000390: 2279 35bc 1b06 743d 659a 8a3e 3495 f1bb
000003a0: 7ccf a8bc 3866 873c c822 42bd 705f 5ebd
000003b0: 8654 fdbc 122e 0f3e 6488 773d 4233 283c
000003c0: e44c 9c3d b040 b4bc 963a 80bc 5b8c 6cbd
000003d0: fec9 06be 1611 b8bd 3c6d 56be a3b4 903e
000003e0: 56ea 403e c3f7 cc3c 2ada e3bd 122e 8f3c
000003f0: 60a5 ce3d aea5 573e b82a 2cbc f497 42be
0.010074518 -0.0017313206 0.015857792 -0.118630804 0.48733613 -0.18243444 0.030663365 -0.060656287
0.012656758 0.015817398 0.035663735 -0.0024154417 0.16842969 -0.91567343 0.43221095 0.027590511
0.15621276 0.040915526 -0.038345497 -0.026622096 -0.013394853 0.2555125 -0.19614124 0.13595054
-0.12459029 0.032832984 -0.0005609978 0.041809443 -0.043216083 0.032274287 0.29722884 -0.38632298
0.3585733 0.047172975 -0.0343601 0.0043927855 -0.01799948 -0.08414035 -0.05782554 -0.3240465
0.83710825 -0.34818238 0.09412247 -0.25730038 -0.040282328 0.02436867 -0.01227745 -0.04557137
-0.04359729 -0.02183589 -0.02975082 -0.0007627335 0.0139256185 -0.043150328 0.031641092 -0.08793951
-0.016494995 -0.3303039 0.48525032 -0.2987187 0.041399732 -0.06268623 -0.021146826 0.0021320817
-0.018651297 -0.022189735 0.12820321 -0.037190855 0.06002309 -0.03428561 -0.027888484 -0.009120791
0.015481608 0.06678337 0.07445619 -0.12641539 0.32553634 -0.27458286 -0.0045364983 0.06581496
-0.0049529034 0.043187574 0.08853546 0.09188766 0.1129693 0.053020712 0.15502085 -0.028428562
0.008143065 -0.05097214 0.008860064 -0.02803747 0.04370903 0.020532256 0.27219903 0.11222437
-0.030495754 -0.06387813 -0.02066262 0.04560861 0.010145077 -0.018632675 -0.1120009 0.97943985
-0.0010442418 -0.047992405 -0.11684296 -0.03685563 -0.08630065 0.030886844 -0.04784341 -0.028279573
0.47333136 -0.2657547 -0.07430721 -0.016863454 -0.063058704 -0.02831682 -0.35652563 -0.11639601
-0.2454559 0.3907926 -0.17796484 0.13282181 -0.20075983 0.008385168 0.038643476 0.07378576
0.040181793 0.0030468944 -0.24025637 -0.043969754 -0.09635726 0.02947147 0.013180815 -0.11274582
-0.1930125 -0.09315405 -0.049519517 0.6761025 -0.09692524 0.108276226 -0.105370976 -0.023474745
0.034248363 0.4122444 0.15846972 -0.3371573 -0.09695321 -0.36486888 0.03704187 0.16664183
-0.09964495 0.07400924 0.03879246 0.048104145 0.43697855 0.03488156 0.40181762 0.046204556
0.0143941175 0.024648018 0.08145858 0.006306336 0.13267282 -0.12198302 -0.09844309 -0.4146305
0.061736446 0.06812425 0.056149434 0.11689647 0.30080453 0.008161687 -0.28024432 -0.63498217
-0.08957837 -0.15248807 0.07371127 -0.19316149 0.11229886 0.16664185 0.12611741 0.14354886
-0.4921037 0.03879246 0.003171791 0.36129323 -0.022636697 0.25402263 0.24905701 0.2691701
-0.11848183 -0.43340284 -0.005533466 0.025560563 -0.009577064 0.101795286 -0.02248771 -0.014784625
0.0789258 -0.25759834 -0.2605781 -0.37380812 -0.032162543 0.09002532 0.18526518 -0.11408671
0.09650625 -0.084512815 0.45023566 -0.02593303 0.33298665 -0.04434222 0.20493145 -0.12581943
0.07847885 0.21208283 0.11401221 -0.013776632 -0.24456199 -0.47690704 -0.013311048 0.06708134
-0.022673944 -0.04899806 -0.12984207 -0.058160756 -0.011076244 0.059576135 0.2707092 -0.0073725227
-0.020606749 0.016528234 -0.04739645 -0.054290235 -0.030924093 0.13982418 0.060432807 0.010266127
0.07631853 -0.022003502 -0.015652936 -0.05775104 -0.13162991 -0.08987634 -0.20940107 0.28262815
0.18839392 0.025020486 -0.11125596 0.017478023 0.100901365 0.21059296 -0.010508232 -0.19003278

encoder.level2_0.d16.conv.weight f4 [6, 6, 3, 3]
00000000: 6c84 82bd 6193 3b3d d6c0 f8bc 15ff 24be
00000010: 34cf 8d3e 28a4 2abe fb81 3abd 43bc f1bd
00000020: 36cb 2abd c1af 00bd 2d99 e6bc 0d7a 50bd
00000030: 48d5 533e b2ed 23bf 5832 0d3e 48d5 d33c
00000040: d029 a43e 9d89 1b3c b718 993c c1af 80bc
00000050: 8ae4 15bc fa4b 81bd 3e3e ec3e d6ae e5bd
00000060: 7bbd 953c e6e7 f8bd 3b5b c33c 2878 3f3c
00000070: c409 60bd 21cc c53c 830c 313e 2cfe 09bf
00000080: 3be4 8c3e 729d e43c 2880 843c 5294 67bc
00000090: 1ffb 2f3d b9e9 2ebe 8c08 bc3c 89c0 6fbe
000000a0: edd1 f03e 97e7 6fbd b39a 933d f2fc 65be
000000b0: de86 4a3e 52f5 043d 5290 61bd cda0 47bd
000000c0: ffc9 06be 7b22 b93e c5b6 4fbd cbe1 44bd
000000d0: eff5 96bd 7de1 3bbc 14b7 d83d 63ed 1a3e
000000e0: 8d50 083e dbc7 47be dafb 813d c822 42be
000000f0: 7326 ae3d b064 5abd 6759 0d3d ced6 00be
00000100: 14db 7ebe 3b5b c3bd 07c6 11bd 052b b5be
00000110: ae1c 8ebd 07b4 fe3c 91aa e73d 495e 9d3d
00000120: f94b 813e dfbc 033e a697 393e bf79 c73d
00000130: 51c2 46bf 40d9 483d 8395 fabd 20cc c53d
00000140: c480 96bd 6a2a 23bd fbe6 5dbe 1281 9fbd
00000150: 66be 30be a520 033f aa8c 75bd 69a1 593d
00000160: a461 003d 7d6a 85bd 89e4 95bd 89e4 153e
00000170: dc44 dcbb 2ecf 9fbe 7bab 023f f261 89be
00000180: fb6f 27bd b0db 90bc 0065 e3bc 74c1 8a3d
00000190: 6c84 02bc eadc 343d f3d9 a8b7 4ba6 e9be
000001a0: d195 033d 9021 9ebd 4445 3b3e de0f 943c
000001b0: 0cdf 733c 88ae 5c3e 266e 713d 2438 383e
000001c0: dc50 913e 9b77 883e 65ac 1d3d a0f5 0d3e
000001d0: 5b15 b63d e33a 09be 13b7 58be af40 34be
000001e0: 16ff 24be 1959 843e 59bb d6bd a02c f2bb
000001f0: c7ec 883d cf5f cabc 9882 cc3d ce70 a53e
00000200: c7da f53d 667b c0bd 6fde e1bd 2479 273a
00000210: 2bfe 093d f939 6e3e f668 583d a44f ed3e
00000220: ddeb ed3e 115d f93e 729d e43d b4ac a63e
00000230: 25c1 013e 0f39 533e 1552 b53d 9086 413e
00000240: 59a9 433c 8ad2 823e c4a4 3cbd c999 f8bd
00000250: 410f 02bd af1c 0ebe 047e 453d ea77 913c
00000260: a2b4 903d c3e5 393d 43ce 043e f1b4 19bd
00000270: bdde eabd 11e6 c23e 2cfe 093d fedb 19be
00000280: c0af 00bd 38ef 50be 2b85 e53d fdf4 913d
00000290: d908 453e 25af 6e3d 02d1 553e 31b2 48bd
000002a0: d625 9c3d 33fa 943d fa4b 013d a573 133e
000002b0: b93c bf3e f7f1 213e 55d8 2dbd 3079 29bf
000002c0: 2155 8fbe 8a6d 5fbe 8d50 08be ede3 03be
000002d0: 15ed 11bd 6140 abbe 29c8 d0bc 4cdc 22be
000002e0: c3f7 4c3e d85b d53c 7afe 92bb d21e cdbc
000002f0: 36a7 04be 3117 ec3d 06a2 eb3d 8c1a 4f3e
00000300: 7afe 923d 197d aabe 67d0 433e cb4b 5bba
00000310: 44ce 043d 6632 c33d ce29 91be 4174 a5be
00000320: f1b4 99be 7338 c1bd ea89 243e 0b44 97be
00000330: d4b3 42ba 7afe 12be 0c7a d03d 485e 9dbd
00000340: b6f4 f2bd 06a2 6bbd 1ee9 9c3d 3801 64bc
00000350: c08b dabd a8df 05be 0f73 cf39 b83c bfbd
00000360: f2ea 523e 9b53 e23e 9d12 653e 7ce1 bb3e
00000370: 7338 41bf a520 833e 7226 aebc 63ff ad3c
00000380: 15ed 913c f668 d83d d3cb bcbd 66be b03c
00000390: 3978 9a3d b937 b63e b323 ddbd 4cdc a23c
000003a0: ace6 54be 0e8c e3bb db3e febd 49f9 f9bd
000003b0: 2b75 c0bd ab39 653d d21e cdbd fe52 d03c
000003c0: f94b 01be e38d 193d 992f 3cbe eb77 11be
000003d0: 15ff a4be de21 27be 8383 e7bc 7987 dc3e
000003e0: 2c10 1dbc 7f05 e23c fedb 19bd a06c 443d
000003f0: ed36 943e 0ccd e03e 8599 6c3e 73af f73c
-0.06372914 0.04579485 -0.030365389 -0.16112931 0.27697146 -0.16664183 -0.045534115 -0.11803486
-0.041697703 -0.031417612 -0.028149212 -0.050897647 0.20686829 -0.6403457 0.13788736 0.025858536
0.3206315 0.009493259 0.018688543 -0.015708806 -0.009148726 -0.063133195 0.46141237 -0.11214988
0.018278828 -0.12153606 0.023847213 0.011686362 -0.054696813 0.024145188 0.17289929 -0.5390346
0.27517876 0.027907107 0.01617439 -0.014134483 0.042964097 -0.17081346 0.022953294 -0.2341329
0.4703516 -0.05857047 0.07207241 -0.22459772 0.1977801 0.03246052 -0.055069275 -0.048737336
-0.13162993 0.3615912 -0.050711412 -0.048066895 -0.07371127 -0.011467335 0.105817944 0.15129618
0.13311978 -0.19509833 0.06346865 -0.1895858 0.08503427 -0.05331868 0.03450909 -0.12581941
-0.24888259 -0.09538885 -0.035589244 -0.35384384 -0.06939064 0.031091703 0.1131183 0.07683999
0.25253275 0.12865017 0.18124256 0.09740018 -0.77640253 0.04903531 -0.12235548 0.096580744
-0.07348779 -0.03983537 -0.21670143 -0.0778829 -0.17260131 0.51221687 -0.0599486 0.05313245
0.031343117 -0.06514452 -0.0731898 0.1463796 -0.006722076 -0.31212753 0.5104291 -0.2683254
-0.040878277 -0.01768288 -0.027758121 0.067751795 -0.007966142 0.044155993 -2.0128651e-05 -0.45634684
0.032125298 -0.07721245 0.18288141 0.018073972 0.0148847215 0.21550953 0.058942936 0.17990166
0.28382003 0.26653752 0.038494486 0.1386323 0.08890792 -0.1340137 -0.21163587 -0.176028
-0.16112933 0.25849226 -0.104849525 -0.0073905736 0.06685787 -0.024703888 0.09985846 0.32312626
0.12004619 -0.093985364 -0.11028754 0.0006388596 0.03368966 0.23264302 0.052834474 0.46349823
0.46469012 0.48703817 0.11162843 0.32553637 0.12671335 0.20627235 0.088535465 0.18898988
0.011942231 0.25551254 -0.04605557 -0.12138707 -0.03175283 -0.1387813 0.04821588 0.017757375
0.07065703 0.045385133 0.12969308 -0.037526075 -0.11468265 0.38066152 0.033689663 -0.15025327
-0.03141761 -0.20403755 0.112070404 0.07126806 0.19241656 0.0582725 0.20880511 -0.04899806
0.07624404 0.07274284 0.031566598 0.14399584 0.37351015 0.15814959 -0.04244264 -0.6620054
-0.27994636 -0.2181913 -0.13311978 -0.12879916 -0.03562649 -0.33447555 -0.025486069 -0.15904349
0.20016389 0.026044771 -0.0044859024 -0.02503911 -0.12954411 0.11527861 0.11505513 0.2022497
0.07177444 -0.33298567 0.19122468 -0.0008365481 0.032423273 0.09531097 -0.28352207 -0.32315257
-0.3002086 -0.09434595 0.16068235 -0.295441 -0.0007427309 -0.14354888 0.101795286 -0.07683998
-0.11863081 -0.057527564 0.07661651 -0.013916306 -0.106711864 -0.130736 0.00039567842 -0.09337753
0.20597437 0.4420441 0.22370382 0.36695468 -0.7547676 0.25610843 -0.021258567 0.021239942
0.017813245 0.10566895 -0.09218564 0.021575164 0.07542462 0.35589388 -0.10797825 0.019880436
-0.2079112 -0.006944186 -0.124143325 -0.122057505 -0.09397348 0.0559632 -0.10015644 0.025430199
-0.12626638 0.03748883 -0.18377532 -0.14205901 -0.32225862 -0.16321513 -0.028260952 0.43072107
-0.009586375 0.027590511 -0.037563317 0.047955155 0.28948155 0.43906438 0.23105438 0.030235028

encoder.level2_0.bn.weight f4 [32]
00000000: db50 913f 0e03 9a3f 4bb8 7c3f 0c56 aa3f
00000010: d513 893f c910 af3f 25af 6e3f fc6f a73f
00000020: 667c 6a3f 201f 563f 9c00 523f 6484 823f
00000030: 7eaf 403f 6fc6 853f c380 163f 55d8 2d3f
00000040: 6511 c13e b78f 4f3f 484c 0a3f 8813 803f
00000050: 03bf 423f a4ea 493f 02bf 423f 6dfb b83e
00000060: c6b6 cf3e aa8e 113f b78f 4f3f 991d 293f
00000070: 14db fe3e 0519 223f af92 1a3f d466 643f
1.13528 1.2032182 0.9871871 1.330751 1.0709177 1.3676997 0.93236 1.308105
0.91596067 0.83641243 0.8203218 1.0196652 0.7526778 1.0451182 0.58790225 0.6790822
0.37708583 0.81078666 0.54022646 1.000596 0.7607271 0.7887366 0.76072705 0.36129323
0.40569133 0.56858313 0.81078666 0.6606079 0.49776518 0.63319427 0.6038007 0.89219403

encoder.level2_0.bn.bias f4 [32]
00000000: 92e0 203d 59cd 693f 6411 413f 85b9 a03f
00000010: ac5d 8b3f e941 d83f 9b41 cf3e 9b41 4f3f
00000020: 9770 b93e 9a41 cfbd defd 803f 3ce4 0c3f
00000030: 7a22 b93e e1f6 623f 6488 f73e 9bca 183f
00000040: 0b44 973e 959f 233f 0a32 843e b435 f03d
00000050: 5319 abbd d22c 123f e428 763d 2302 ff3d
00000060: f23f 193f a461 003f dc74 37bd 4198 cbbc
00000070: 0d7a d03d 9d24 78bc 7680 0d3e c822 c2be
0.039276667 0.9132896 0.7541716 1.2556616 1.0887961 1.6895114 0.4047974 0.8095948
0.36218712 -0.101199344 1.0077474 0.5503576 0.36159116 0.8865796 0.48346245 0.5968415
0.295441 0.6391538 0.25819427 0.11728993 -0.083544396 0.5709964 0.06009759 0.124515794
0.598632 0.5014899 -0.04478918 -0.024852874 0.10179529 -0.015145448 0.13818535 -0.3791716

encoder.level2_0.bn.running_mean f4 [32]
00000000: b1d6 c63c a234 80bf 458e 04bf caa0 81bc
00000010: eb6d 24be 88df 21bf d856 1fbf 586e 6dbf
00000020: a31e a43d 4654 2cbe 030b acbf d920 edbe
00000030: d1f6 11bf 98ae 84bf 9f69 073e 079c 823e
00000040: b01e 42c0 9bea 51bf f520 2e3f 87e3 e4be
00000050: 5884 c2be d1f1 823f 2348 25c0 4875 f6bf
00000060: 0d3b 39bf d385 a6bf 8d2b 1abf 4394 45bf
00000070: 3592 74c0 398d 83c0 819d a53e 7712 a2bf
0.024272295 -1.0016062 -0.51779586 -0.01582374 -0.16057555 -0.63231707 -0.6224189 -0.92746496
0.08013656 -0.16829023 -1.344086 -0.46314123 -0.57017237 -1.0365782 0.13223885 0.25509664
-3.033123 -0.81998605 0.6801904 -0.4470484 -0.37991595 1.0230047 -2.5825279 -1.9254541
-0.7235573 -1.300959 -0.60222703 -0.77179354 -3.8214238 -4.110989 0.32346728 -1.2661885

encoder.level2_0.bn.running_var f4 [32]
00000000: c705 3740 6b41 2b40 ca2f 5540 9ec9 8440
00000010: 8693 de3f 6fb7 6840 dd0a a240 5893 dc40
00000020: 3aef fb3f fd3a f340 4361 1240 7521 e33f
00000030: 9d9e 2540 e10a e53f e7ce 5c40 bb4a 0141
00000040: e497 cc40 1a8d 9140 c389 c240 94f0 b540
00000050: d2d0 d140 9a13 4741 dd01 4c41 9ea8 2941
00000060: 2036 2e41 dc44 4f41 d11b 5041 c4e4 4f41
00000070: f962 e341 d5c7 9541 fa25 c441 0a7a 7741
2.8597276 2.6758678 3.3310418 4.1496115 1.738877 3.636196 5.063826 6.8929863
1.9682381 7.6009507 2.2871864 1.7744585 2.587806 1.7893945 3.4501283 8.080745
6.3935413 4.5484743 6.0793166 5.6856174 6.5567408 12.442286 12.750455 10.603666
10.888214 12.954311 13.006791 12.993351 28.423326 18.722574 24.518543 15.467295

encoder.level2.0.c1.depthwise.weight f4 [32, 1, 1, 1]
00000000: 5897 30be 4616 513e 0e39 533f a44f 6d3f
00000010: c409 e0be 420f 02bf f532 1f3f f0a2 86bf
00000020: 0bcd 603f 238b 483f 046c 32bf ae1c 0ebf
00000030: a05a 313f d38c 843e 2ee1 b23e de0f 943e
00000040: a685 a6be f7f1 a13e 1723 4bbf d230 603f
00000050: ed5a 3abf 5720 7a3f 7238 41bf 45e0 17bf
00000060: 5468 c63e 7ef3 4ebf 8813 00bf 6d84 823f
00000070: 81e8 0abf 2d22 b0be 3583 5ebf eaee 47bf
-0.17245233 0.20418653 0.82508934 0.92699647 -0.4375745 -0.5080453 0.6218713 -1.0518475
0.8781287 0.78337306 -0.6969607 -0.5551251 0.6927891 0.2588869 0.34937423 0.28918356
-0.3252384 0.31629917 -0.7935042 0.87574494 -0.7279499 0.97705597 -0.75476754 -0.59326583
0.3875147 -0.8084029 -0.500298 1.0196663 -0.5426102 -0.34401074 -0.86918956 -0.7809893

encoder.level2.0.c1.pointwise.weight f4 [6, 32, 1, 1]
00000000: f273 9c3c c810 2f3e 7f05 e23e 8666 90be
00000010: 4eee 353e 1b8f bd3e 0bcd 603e b9d7 9b3c
00000020: 8ca3 18be 9133 b1bd ba84 8bbc 6bd7 12bd
00000030: af1c 8e3e fd2e aa3d 7238 c13e de0f 94be
00000040: 54a2 f4be 0fb0 89be eef5 16be ea12 ee3d
00000050: a0f5 0dbe 6b60 5c3e 14b0 e03c 45e0 973e
00000060: ed48 a7bd 7079 bebd e204 503e dc3e febd
00000070: 97f9 823d 6747 7a3e 0921 54be 1e60 d33d
00000080: ae81 b1be ecbf 5d3e 8f74 aebd 6193 3bbe
00000090: c09d 6dbd fc1c 17bf 1dd7 09be f94b 813e
000000a0: 5024 ef3d 7afe 123e a6a9 4cbe 43aa 5e3d
000000b0: 495e 9d3e 2031 693e 010f 89be be55 21bd
000000c0: 5db0 923e e33a 093d 959f 23be 7e79 8a3e
000000d0: 787f 8e3b 9c89 9bbd c9bd 9ebe 01ad 2fbe
000000e0: f1d8 bfbe 99a6 72be abd2 813e 52e3 713e
000000f0: 1959 043c cd3b 24be aa9e 083d 169a 01be
00000100: 975e 263e 0973 813c 063d c83d 4f12 5cbe
00000110: 9bca 98bd f6cd 7b3e 3d1a c6bd c14a 5dbe
00000120: e72f c5bc 7b34 4cbe 55b4 07bd da2c ebbd
00000130: 1b8f 3dbe b39a 933e 4a94 563e 509b a53e
00000140: 1b2a 9abd eb24 81bc 8949 b9bd 21cc c53c
00000150: ccf3 d73e bf9d ed3e 41eb 5b3e 1564 c83d
00000160: d04e 2ebb 1ca1 d03e 5907 a4bb 2f6a fcbe
00000170: a632 16be 525a 28be b4ac a63e 40c7 35be
00000180: e6f9 8bbd a4d8 b6bd e17b 86bd d501 76be
00000190: 6c84 823d 9b53 623e 9198 54be c910 afbe
000001a0: 9d24 783e 4569 61be 1ac6 8f3e e682 d53e
000001b0: 91ce 8d3d 889c c9bc 7179 3ebe ced6 803d
000001c0: c7da 753e d625 9c3e 2892 17be 1564 48be
000001d0: d2b9 293e 248b 48be e794 68bd a6bb df3d
000001e0: f88c 7e3d b311 ca3e 983d 4f3e b288 00be
000001f0: 992f 3c3d c8fe 1bbe 8db5 2bbc 249d 5b3d
00000200: a5fc 5cbe ba0d 55be 7580 0dbe d7c0 78be
00000210: 8b08 3c3c 5f6f 953e 6e31 72bd a290 ea3e
00000220: 3978 1a3c 15ff a43e 2a63 ad3e 21ba b23b
00000230: 85ef 593e d8d2 0bbe 9f36 0b3e d4dd cfbd
00000240: 24c1 013e de86 4abe 5419 2bbe eb77 913e
00000250: fc0a 843d b4be 39be 61b7 613c bbfb c1bd
00000260: b77d bcbd 199e 0bbf d69c d23e 66be 303e
00000270: 5bf1 8fbe 79da ecbe bad7 1bbe aa03 2c3e
00000280: 80b2 d1bc e1f2 bcbd b56b 29bd 0248 8cbc
00000290: 281b 613d 8507 6e3b 82fa 1dbd 8666 103f
000002a0: 676b a0be 8b7f 72bd f99e 91be de21 273e
000002b0: 4604 3ebd 33e8 813e d6ae e5be 79fe 923d
000002c0: 28a4 aa3e a6a9 4c3e c492 293e feb7 73bd
000002d0: c910 2fbc f432 1f3d 718b d13e 8d2c 62be
000002e0: 57fc 53be aa9e 883e ce29 91be 51bf 4bbe
000002f0: 3ffa 913c f7f1 a1bd 009b 1c3b defd 80be
0.019098256 0.17096245 0.44144818 -0.2820322 0.17766687 0.37023243 0.21953218 0.019023763
-0.14906138 -0.08652414 -0.017031062 -0.03584997 0.2775626 0.083097436 0.37738377 -0.28918356
-0.47780097 -0.26892135 -0.14742252 0.11624701 -0.1386323 0.21521156 0.02742771 0.29663292
-0.08168206 -0.09300506 0.20314363 -0.12414333 0.06395262 0.244413 -0.20715727 0.10321067
-0.3466925 0.21655244 -0.085183255 -0.1831794 -0.05801177 -0.590286 -0.13460965 0.25253275
0.11676848 0.14354888 -0.1998659 0.054361593 0.30735996 0.22772646 -0.2676926 -0.03938841
0.2865018 0.033503424 -0.15978844 0.27045816 0.0043486916 -0.07594606 -0.3100417 -0.1715584
-0.374702 -0.23696364 0.2535604 0.23621872 0.008077883 -0.16038437 0.03335444 -0.12656435
0.1624702 0.015801923 0.09777264 -0.21491359 -0.07460519 0.24590287 -0.09672973 -0.21610548
-0.024070693 -0.19941895 -0.033130962 -0.11483164 -0.18511622 0.28828964 0.20955005 0.32345057
-0.07527562 -0.015764674 -0.09047229 0.024145188 0.4217819 0.46409413 0.21476461 0.09784714
-0.002659727 0.40747917 -0.0050057587 -0.49299762 -0.14667758 -0.16440704 0.32553637 -0.17751789
-0.06834774 -0.0892804 -0.06566597 -0.24024136 0.06372914 0.22102205 -0.20761324 -0.34192494
0.24232717 -0.22012813 0.28080827 0.4170143 0.06924165 -0.024610773 -0.18601014 0.06290971
0.24009238 0.30497617 -0.14801848 -0.19569428 0.16574791 -0.19584328 -0.05678263 0.10924463
0.062146157 0.39466628 0.2023834 -0.12552145 0.04594383 -0.1523391 -0.010480297 0.053616658
-0.21580751 -0.20806018 -0.13818534 -0.24292313 0.011476646 0.29186532 -0.05912917 0.4581347
0.009428077 0.32225862 0.3386472 0.005454317 0.21282776 -0.1365465 0.13595055 -0.10149732
0.12671334 -0.1977801 -0.1670888 0.28411803 0.064474076 -0.18139154 0.013776631 -0.09471842
-0.09203666 -0.5453811 0.4113528 0.17260131 -0.28113827 -0.4626043 -0.15219012 0.16798273
-0.02559781 -0.09226013 -0.041362483 -0.01712418 0.05495754 0.00363204 -0.03856898 0.5640644
-0.3133194 -0.059203666 -0.284416 0.16321513 -0.046390794 0.25372466 -0.44859952 0.07177443
0.33328366 0.1998659 0.16559893 -0.05950164 -0.010685154 0.038866952 0.40926698 -0.22087307
-0.20701729 0.2668355 -0.28352207 -0.198972 0.017819522 -0.07907479 0.0023896098 -0.25193685

encoder.level2.0.d1.depthwise.weight f4 [6, 1, 3, 3]
00000000: 2a3f 87bc 307c 8f3e ee07 aabe 5af7 143f
00000010: ca46 e8bd d10c babe e316 63bd 0a0e 5ebd
00000020: 4dca 0fbd c126 37be a1e3 90be 4cca 8f3e
00000030: 66be b0be ba3c 9cb9 acb9 d4be 0e27 403c
00000040: a844 29bc ca34 55be e392 79bb b39a 933d
00000050: 20a8 9fbd 62db 073f 3c5b c3be 6bd7 123e
00000060: 649a 8a3d 2471 a0be 5e6f 953c 69dd a7bb
00000070: 93f2 b3bc d6c0 f83c d454 06bf a32b c7be
00000080: 8383 e7be a520 83be 9499 90ba bba8 b1bd
00000090: 48c3 40be 2ac8 50be a585 263e 6d84 02bf
000000a0: 41eb 5bbe ed48 27be 2096 0c3d 698f c6bd
000000b0: 0997 273e 6fcc 4e3d daa3 21be f161 89be
000000c0: 8c2c e2bd 762d 7dbd b152 473e 5673 0abd
000000d0: da91 8e3e d908 c5be
-0.016509611 0.28024435 -0.33209175 0.5818993 -0.11341627 -0.36337903 -0.05544175 -0.054212607
-0.03510504 -0.17885877 -0.28298667 0.28084028 -0.34520262 -0.00029799883 -0.41547906 0.011728061
-0.01033131 -0.20820919 -0.0038081936 0.07207241 -0.07795739 0.53069127 -0.38155544 0.14339988
0.06767729 -0.3133632 0.01824158 -0.0051228297 -0.021966254 0.030365389 -0.5247319 -0.3890048
-0.45217523 -0.25610843 -0.0011032098 -0.08674761 -0.18824494 -0.20388857 0.16261919 -0.50983316
-0.21476461 -0.16336413 0.034322858 -0.09695322 0.16366209 0.05048793 -0.1578516 -0.26832536
-0.11043653 -0.061810933 0.19465138 -0.0338014 0.2784565 -0.38483313

encoder.level2.0.d1.pointwise.weight f4 [8, 6, 1, 1]
00000000: 88ae dc3e 17ac 14be 6d84 823e 9516 5a3f
00000010: 81d6 773e d295 033e 8e50 883e e29f acbd
00000020: 49d5 d3bd 14c9 ebbd bca8 b1be 33e8 81be
00000030: cabd 9ebe 1ee9 1c3e d4ef e23d 0077 763d
00000040: 3e08 b3be 1a18 07be bb84 8b3e 340c a8bd
00000050: 95b1 363f b706 06be 07c6 11be 4e00 c9bc
00000060: 81fa 1d3d 5cca 1b3e 047e c53d 7a22 b93d
00000070: 6028 82be 6fba 3b3e 1859 843e 90c9 c93e
00000080: fb6f a73e 19e2 4dbd c08b dabe 196b 973e
00000090: 293f 07be 51d1 de3e 949f a3be 16ff a43e
000000a0: f2fc e5bd 5a7a 593d 0d15 2dbe 70f0 f4be
000000b0: 52e3 f13d a8f1 18be b29a 13bd dd86 cabd
0.43101907 -0.14518772 0.25491658 0.8519071 0.2420292 0.1285012 0.26623958 -0.08428933
-0.10343415 -0.11512962 -0.34699047 -0.25372466 -0.31004173 0.15323302 0.110809 0.06017208
-0.34967226 -0.13192788 0.27249703 -0.082054526 0.7136472 -0.13088499 -0.14235698 -0.024536278
0.038568977 0.15213913 0.09643176 0.09039779 -0.2542143 0.18332838 0.25849223 0.39411592
0.32702622 -0.05026445 -0.42684746 0.29573897 -0.13207687 0.4351907 -0.31957686 0.32225865
-0.11229886 0.0530952 -0.16902561 -0.4783969 0.11810936 -0.14935935 -0.0360362 -0.098890044

encoder.level2.0.d2.depthwise.weight f4 [6, 1, 3, 3]
00000000: 3be4 0c3e 03bf 42bd dc5f dcbc 7326 aebe
00000010: 14db 7ebc 36a7 043f ebad cabd c822 c23d
00000020: 8029 08bd 6193 3bbe c946 68be 7d7c 983d
00000030: 2951 9abe 93e0 203e c663 3f3f 2a63 2d3e
00000040: 03e3 e83d 2a63 adbd 622e 983d de86 cabe
00000050: 40c7 35be b82a ac3e 276e f13e 4445 3bbe
00000060: 895b ccbd 804d aebc 5c8c 6c3c 35a7 843d
00000070: 878a 36be f432 1f3e 542b bebe 120a e93e
00000080: 815f c1be c5a4 3c3e 980b 96be 3d91 fcbd
00000090: 7238 c13e f94b 813e 2352 4f3b d342 733e
000000a0: 3cf6 9f3c 99a6 723d bede 6abe 89d2 023e
000000b0: f1d8 bf3d b2ff 36be 8feb e4bd a7bb dfbd
000000c0: 831e 44be b8a1 e2be ae81 313e 0348 8cbd
000000d0: 2792 173e bb84 8bbd
0.13758938 -0.047545444 -0.026901178 -0.3401371 -0.015555162 0.51817644 -0.098964535 0.0947929
-0.033242702 -0.1831794 -0.22683252 0.07445619 -0.30140045 0.15710668 0.7476162 0.1693236
0.11371424 -0.0846618 0.07430722 -0.3955602 -0.17751789 0.33626342 0.47154352 -0.18288141
-0.099783964 -0.02127719 0.014437761 0.06477205 -0.17826281 0.15546781 -0.37142432 0.45515496
-0.37768176 0.1842223 -0.2930572 -0.123323895 0.37738377 0.25253275 0.003163465 0.2375596
0.019526593 0.05924091 -0.22936532 0.12775625 0.0936755 -0.17870978 -0.11177742 -0.10924464
-0.19152264 -0.44264007 0.17334625 -0.06849673 0.14801846 -0.06812426
